results/training_train_results/best_model_100.pt (torch, 6907 bytes, 12 tensors)

std f4 [1, 2]
0	0x3f800000	1.0
1	0x3f800000	1.0

mean f4 [1, 2]
0	0x00000000	0.0
1	0x00000000	0.0

fc.layers.layer_0.weight f4 [8, 4]
0	0x3d8078b0	0.06273019
1	0xbf887eed	-1.0663735
2	0xbd7fd6bd	-0.06246065
3	0xbfe8da5e	-1.819164
4	0x3eba139a	0.3634308
5	0xbf63be83	-0.8896257
6	0xbc138fde	-0.009006469
7	0x40071d53	2.1111648
8	0xbed727a4	-0.4202243
9	0xbf77d83f	-0.9681434
10	0xbd85bc7d	-0.06530092
11	0x404fe0f5	3.2481053
12	0xbf15360a	-0.5828558
13	0x40028d87	2.0398881
14	0x3e3e0206	0.1855546
15	0x3efbb498	0.4916122
16	0x3d65ee2a	0.056135334
17	0xbfc0da91	-1.5066701
18	0x3cacabe1	0.021078052
19	0x410929f7	8.572745
20	0x3fbdc2b9	1.482505
21	0x3e9a3260	0.30116558
22	0x3ec53f47	0.3852484
23	0xc07c3b29	-3.9411108
24	0xbf039a24	-0.51407075
25	0x3f8349ca	1.0256894
26	0xbde5be13	-0.112178944
27	0x40360af2	2.844418
28	0x3e1d141d	0.15339704
29	0xbfd429a6	-1.657521
30	0x3e3d8ff4	0.18511945
31	0xc04e74ff	-3.2258909

fc.layers.layer_0.bias f4 [8]
0	0x3dc590b0	0.096467376
1	0x3de8f37f	0.11374568
2	0x3e131502	0.14363483
3	0xbf1f5928	-0.62245417
4	0xbdf9da15	-0.12199799
5	0xbdbc224d	-0.0918623
6	0x3f1080ad	0.56446344
7	0xbe1514c8	-0.14558709

fc.layers.layer_1.weight f4 [8, 8]
0	0x3ddf49ad	0.109027244
1	0x3e77c8f8	0.24197757
2	0x3d3eb118	0.04655561
3	0x3e2ad744	0.1668368
4	0x3edd5627	0.43229792
5	0xbce1b6dd	-0.027553016
6	0xbe6aef84	-0.2294293
7	0x3e7f9108	0.24957669
8	0x3e861bad	0.2619299
9	0xbea35bb4	-0.319059
10	0x3e21cdbf	0.15801142
11	0xbc9ebf34	-0.019378282
12	0x3dadc6e3	0.084852
13	0x3e70ee84	0.23528486
14	0xbeab31e9	-0.33436516
15	0x3d3c8da7	0.046033528
16	0xbb2dd211	-0.0026522914
17	0x3f4a5079	0.7902904
18	0xbee8a30e	-0.454369
19	0x3ebeb732	0.37249142
20	0x3e0c4dc0	0.13701534
21	0xbe274d6d	-0.1633813
22	0xbccebf80	-0.025237799
23	0x3e073574	0.13203984
24	0xbd157a38	-0.03649351
25	0xbea56d83	-0.32310113
26	0xbeb6f49f	-0.35733506
27	0x3e6042a8	0.21900427
28	0xbe759560	-0.23982763
29	0xbe862ccd	-0.26206055
30	0x3d31db8f	0.043422278
31	0xbe186c52	-0.14885071
32	0x3e9542b4	0.29152453
33	0xbecc596c	-0.39911973
34	0xbeaf1918	-0.34198833
35	0x3e8814e7	0.26578447
36	0xbe6e003d	-0.23242278
37	0x3e09801c	0.13427776
38	0x3e23f1df	0.16010235
39	0xbebda2e6	-0.37038344
40	0x3e39cb57	0.18143974
41	0x3edd547d	0.43228522
42	0xbe30d9e9	-0.17270626
43	0x3cd6d458	0.0262243
44	0x3d99d4dc	0.07511303
45	0xbea2e970	-0.31818724
46	0x3e39e1ab	0.18152492
47	0x3d8b0e78	0.06789869
48	0x3ebe65d5	0.37187067
49	0xbd09a147	-0.03360107
50	0x3da15cc5	0.078790225
51	0xbdc9ff6b	-0.0986317
52	0xbe2cd5fe	-0.16878507
53	0xbe1989c1	-0.14993955
54	0x3e55aafe	0.2086601
55	0xbec8fc4d	-0.3925499
56	0x3e823e98	0.2543838
57	0xbe9a3a93	-0.30122814
58	0x3e27c2ae	0.16382858
59	0xbe926d63	-0.2859908
60	0x3f083301	0.53202826
61	0x3ce25fb7	0.027633531
62	0x3ee7fca6	0.45309943
63	0x3e122ce4	0.14274937

fc.layers.layer_1.bias f4 [8]
0	0xbe81da9b	-0.25362095
1	0xbe82bb53	-0.25533542
2	0x3e4aac44	0.19792277
3	0x3e47f296	0.19526133
4	0x3e8c7715	0.27434602
5	0xbc9d4702	-0.019198898
6	0x3e602382	0.21888545
7	0x3d8420f2	0.06451596

fc.layers.layer_2.weight f4 [8, 8]
0	0xbe86a3f7	-0.2629697
1	0xbd8212fa	-0.06351276
2	0xbe545c96	-0.20738444
3	0xbe0524d4	-0.1300233
4	0x3d6343bf	0.05548453
5	0x3d841f4b	0.06451281
6	0xbd867735	-0.06565706
7	0x3e7e6c8e	0.24846098
8	0x3e9694c5	0.29410377
9	0x3f0f7e0c	0.5605171
10	0x3e3a1a75	0.18174155
11	0xbe74f0e7	-0.23920022
12	0xbe54ce34	-0.20781785
13	0x3e7a6aff	0.24454878
14	0x3de5f551	0.11228431
15	0x3e697b63	0.22800975
16	0x3d8eb802	0.069686905
17	0x3efd7323	0.49501905
18	0x3e65e767	0.22451554
19	0x3d8f5684	0.069989234
20	0x3ddea5a3	0.108714364
21	0xbe7d8e42	-0.24761298
22	0x3e4fb2a1	0.20282985
23	0x3daa6c49	0.08321435
24	0x3d5fa4ea	0.054600634
25	0x3e7a6ed5	0.24456342
26	0x3daf3553	0.08555093
27	0x3e996709	0.29961422
28	0x3ef2803f	0.4736347
29	0x3e929dbd	0.2863597
30	0x3e7a3087	0.24432574
31	0x3ea5b11b	0.32361683
32	0x3e7e8a68	0.24857485
33	0x3e565d9d	0.20934148
34	0xbea166db	-0.31523785
35	0x3e3e1488	0.1856252
36	0xbe0b3070	-0.13592696
37	0xbe64c8a2	-0.2234216
38	0xbe45fe6a	-0.19335333
39	0x3ea531de	0.32264608
40	0x3e114f4d	0.14190407
41	0xbdcba55d	-0.0994365
42	0xbe0e4755	-0.13894399
43	0xbea66595	-0.32499376
44	0xbeea69b0	-0.45783758
45	0x3e8d0470	0.27542448
46	0xbdd16448	-0.10224205
47	0x3d7994d8	0.060932964
48	0x3e876a53	0.26448306
49	0x3e8f9091	0.28039983
50	0xbe1b737a	-0.1518077
51	0xbc403748	-0.01173193
52	0xbbe4cde8	-0.0069825538
53	0x3e305254	0.17218906
54	0x3ea6c3fd	0.32571402
55	0xbd6a6354	-0.057223633
56	0xbd67819a	-0.056520082
57	0xbe2db112	-0.16962078
58	0x3eb8a13b	0.3606051
59	0x3db56778	0.08857626
60	0xbe9e2883	-0.30890283
61	0x3dbe4ec8	0.0929237
62	0x3e30995c	0.17246002
63	0x3d5697c0	0.052390814

fc.layers.layer_2.bias f4 [8]
0	0x3e913fc7	0.2836897
1	0x3dc32235	0.09528009
2	0xbe3977f0	-0.18112159
3	0x3e5006e7	0.20315133
4	0xbeb2ac8e	-0.34897274
5	0x3eaba9fc	0.33528125
6	0x3e917902	0.28412634
7	0x3d438c71	0.047741357

fc.layers.layer_3.weight f4 [8, 8]
0	0xbe64be62	-0.2233825
1	0x3f18a8f2	0.5963279
2	0xbe5480a1	-0.20752193
3	0xbef09447	-0.46988127
4	0xbe9260eb	-0.28589568
5	0x3e889f2e	0.26683944
6	0xbe449e6e	-0.19201061
7	0xbe0c6b1a	-0.13712731
8	0x3ebd9a00	0.37031555
9	0x3e7ccfea	0.24688688
10	0x3e118cd0	0.14213872
11	0x3e9710a5	0.29504886
12	0xbd7e267a	-0.062048413
13	0x3e0865b0	0.1332004
14	0xbd104a2c	-0.035226986
15	0x3e2330de	0.1593661
16	0xbd864c5d	-0.06557534
17	0x3ea3c826	0.3198864
18	0x3e550739	0.20803536
19	0x3e816720	0.2527399
20	0x3d5630e8	0.052292734
21	0x3de8343a	0.113380864
22	0xbe823618	-0.25431895
23	0xbe548169	-0.20752491
24	0xbe4fc6ee	-0.2029073
25	0xbd8e4973	-0.06947603
26	0x3cc1e942	0.023670796
27	0x3e3a611c	0.18201107
28	0xbe408743	-0.18801598
29	0xbc5ca89a	-0.013467932
30	0xbd15ece2	-0.036602862
31	0x3df2f88e	0.11863814
32	0x3d85ef5a	0.06539793
33	0xbddf2ba9	-0.108969994
34	0xbdcad3fa	-0.099037126
35	0xbef25d5b	-0.4733685
36	0xbe1ca91a	-0.15298882
37	0x3dfcc1a1	0.12341619
38	0x3c9033d7	0.017602844
39	0xbd5bbf41	-0.05364919
40	0x3e1153b6	0.1419209
41	0xbe91f3f6	-0.2850644
42	0xbe807a37	-0.25093243
43	0x3d82ae41	0.063808925
44	0xbe02144e	-0.12703058
45	0x3e4e4102	0.20141986
46	0xbe0a46ac	-0.13503522
47	0x3e9e1333	0.30874023
48	0x3c91d4ff	0.01780176
49	0xbe02b906	-0.12765893
50	0x3d96b996	0.073596165
51	0x3e8de3f9	0.27712992
52	0xbdc2c936	-0.09511034
53	0xbecc3b47	-0.39888975
54	0xbe831c01	-0.25607303
55	0x3e26bf1b	0.16283838
56	0xbe3b9ec2	-0.1832228
57	0x3dc5a950	0.096514344
58	0x3e252b35	0.16129763
59	0x3d34e382	0.04416228
60	0xbe7ba192	-0.24573353
61	0xbcae2c03	-0.02126122
62	0xbd2ea740	-0.04263997
63	0x3d9260c7	0.07147365

fc.layers.layer_3.bias f4 [8]
0	0xbe6048f4	-0.2190283
1	0x3e8bc90e	0.2730183
2	0x3d681c36	0.05666753
3	0x3e09f019	0.13470496
4	0x3d4571c6	0.048204206
5	0x3e00ff57	0.12597404
6	0xbc9a6793	-0.018848216
7	0xbea1c636	-0.31596535

fc.layers.layer_4.weight f4 [2, 8]
0	0xbe7b48a5	-0.2453943
1	0x3c0e177e	0.008672593
2	0xbe386d57	-0.1801046
3	0x3e7a5b85	0.24448974
4	0x3e5cc362	0.21558908
5	0xbd93fbda	-0.07225771
6	0x3fc81a21	1.5632974
7	0x3e1c1786	0.15243348
8	0x3d21edc3	0.039533388
9	0x3d91eecf	0.07125627
10	0x3d0209ed	0.031747747
11	0xbe82b0df	-0.25525567
12	0xbe91ed7a	-0.28501493
13	0xbe5c1991	-0.21494128
14	0xbea813b5	-0.32827535
15	0x3e305ccc	0.17222899

fc.layers.layer_4.bias f4 [2]
0	0xbd626faa	-0.055282272
1	0x3e2d0a9a	0.16898575
