results/training_train_results/best_model_262.pt (torch, 13691 bytes, 12 tensors)

std f4 [1, 2]
000000 00 00 80 3f 00 00 80 3f
       1.0 1.0

mean f4 [1, 2]
000000 00 00 00 00 00 00 00 00
       0.0 0.0

fc.layers.layer_0.weight f4 [24, 4]
000000 44 aa c0 bf 02 86 3d c0 7f 44 bc bd 1d 31 9c 3f
       -1.5051961 -2.9613042 -0.09192752 1.2202488
000010 ff da a0 bd df 88 58 40 8f d4 59 3c 09 6b 40 c0
       -0.0785427 3.383354 0.013295307 -3.006533
000020 a8 cf b2 3e 0a 0f 3c c0 21 df 61 be c0 5f 8c 3e
       0.34924054 -2.938418 -0.22057773 0.274168
000030 6c 97 89 be c9 cd 2b 40 41 ce 38 3e e5 5a 6a be
       -0.26873338 2.6844351 0.1804743 -0.22886236
000040 f1 e5 02 bf 66 44 a6 c0 af 92 f0 3d b4 d1 b9 3f
       -0.5113211 -5.1958494 0.11746728 1.4517121
000050 83 e0 18 3f 1c 37 a1 3f ce 73 9a bb 91 65 43 c0
       0.5971758 1.2594943 -0.004713512 -3.0530741
000060 c7 b7 8d 3e a2 09 67 bc b7 a1 54 3c 88 30 81 c0
       0.27679273 -0.014101418 0.012978009 -4.037174
000070 5b 20 80 3f e3 43 1d c0 c6 50 74 3e ba 72 07 c0
       1.0009874 -2.4572685 0.23858938 -2.1163774
000080 75 92 c4 3f bf 1a 99 c0 5b 4a e3 bd 7e e2 b5 3f
       1.5357195 -4.784515 -0.110981666 1.4209745
000090 ea 6b 23 bf 75 ae 59 bf a9 4b df 3c 92 7d 90 c0
       -0.6383654 -0.85031825 0.027257757 -4.5153284
0000a0 4f 96 03 bf 9f e0 46 3f eb dd c5 bc 86 bb d1 c0
       -0.5140123 0.77686495 -0.02415367 -6.554141
0000b0 12 3f 76 bf 5f 7a 57 40 3e ab 74 bd 26 0e 7c 40
       -0.9618999 3.366844 -0.05973362 3.9383636
0000c0 b1 05 01 bf 83 4e 37 c0 49 f9 e0 3d 0f bf 6e 3f
       -0.5039931 -2.864167 0.10985047 0.9326028
0000d0 22 06 b8 bf fa 54 06 3f 07 c7 8c 3e ae 4f 87 3f
       -1.4376872 0.52473414 0.27495596 1.0571191
0000e0 83 67 ac 3f 8a ce 5a c0 56 db bc 3d 9a 65 93 3f
       1.3469089 -3.4188561 0.092215225 1.1515381
0000f0 07 96 c4 be 12 f4 8c c0 ab 19 8d 3d bf 17 0f c0
       -0.38395712 -4.4047937 0.068896614 -2.2358243
000100 6c e0 bd 3e f0 a2 07 c0 5e a1 bb be 8a fa 6d bf
       0.37085283 -2.11932 -0.3664655 -0.9296042
000110 e9 21 fc be 5e 2b 44 40 4b 22 6e 3e d1 f7 af 3f
       -0.4924462 3.065147 0.23255269 1.3747503
000120 1d ef e7 bf 4f 37 0f c0 14 10 a3 3d 83 8b 54 3f
       -1.8119847 -2.2377508 0.07962051 0.8302538
000130 91 94 12 be fb a2 aa 3f ae c4 5b 3b f1 67 a0 c0
       -0.14314486 1.3330988 0.0033533978 -5.012688
000140 92 c2 a2 be 53 c4 4b c0 00 ea c6 bd e7 7b 04 c0
       -0.3178907 -3.1838577 -0.09712601 -2.0700624
000150 f7 fc da be 19 32 19 40 14 5b 4f 3e 20 84 4c 3f
       -0.42771122 2.3936827 0.20249587 0.79889107
000160 36 0d cd 3d ba b2 80 40 17 72 80 be f7 c8 48 40
       0.100122854 4.021817 -0.25087044 3.137266
000170 91 b7 ab be de 5f 50 40 f6 0c b8 be e1 3c 3f 40
       -0.33538488 3.2558513 -0.35947388 2.9880908

fc.layers.layer_0.bias f4 [24]
000000 fc f2 11 3f 15 30 b3 be ff 4d 66 3f d2 e7 58 bf
       0.5701139 -0.3499762 0.8996276 -0.8472873
000010 b6 37 61 bf 05 37 21 3e a0 05 8e be 46 7b 83 bf
       -0.87975633 0.15743645 -0.27738667 -1.0271995
000020 32 38 01 3f 4c 0d 5a be 77 77 c1 3e 5d 39 1c 3f
       0.5047637 -0.21294135 0.37786457 0.6102503
000030 82 e5 87 be e2 5e 5e bf 5b 01 12 bf 48 da 9d 3d
       -0.26542288 -0.8686353 -0.5703332 0.077076495
000040 50 12 bc 3f 01 74 29 bf 7d b6 00 bf ed 3e 9e 3d
       1.4693089 -0.6619263 -0.50278455 0.07726846
000050 06 21 36 3f 1e b1 76 be 6a 2c 5e 3f ac 5e bb 3f
       0.7114414 -0.24091002 0.8678652 1.4638267

fc.layers.layer_1.weight f4 [24, 24]
000000 30 6d db 3e 99 06 45 be b9 8c 49 3d 82 35 f4 bd
       0.4285674 -0.19240798 0.04920647 -0.11924268
000010 f8 4c e3 3e 19 2c 93 be 97 ae 8a 3e 25 11 fd bb
       0.4439466 -0.2874458 0.27086326 -0.007722991
000020 71 35 5a 3d 5f 97 18 3f 6f 9e d6 3e 8a a7 b0 be
       0.053273622 0.59605974 0.4191775 -0.34502822
000030 ce 48 7f 3e 28 9d 84 bc e2 9f a8 3e 94 b4 82 3e
       0.24930117 -0.01618822 0.3293448 0.25528395
000040 f2 a9 ad 3d bc 1e db bd 92 d6 4f 3e 0d 32 19 be
       0.0847968 -0.106992215 0.20296696 -0.14960499
000050 ea 83 b3 3e 30 8d 26 be 34 73 ec 3d 8a 67 b1 3b
       0.3506158 -0.16264796 0.11545411 0.005413954
000060 68 be bd 3c 6b 74 f0 3e 9a 16 00 3e 41 95 b3 bd
       0.023162082 0.4696382 0.12508622 -0.08768702
000070 55 34 b7 3e e1 79 ad 3c ac 6c bd be d7 70 26 3d
       0.35782114 0.02117628 -0.36996973 0.040634956
000080 48 b5 ff bc 83 74 01 be 66 42 a9 3e b6 66 14 be
       -0.031214371 -0.12642102 0.3305847 -0.14492306
000090 d4 43 3a bd f9 4f 0d be 48 31 6d bd 12 f5 74 3e
       -0.045474842 -0.13800038 -0.057908326 0.23921612
0000a0 8d a4 fd bd f6 48 16 bc 29 0f 7a bc fd 74 01 3f
       -0.12384901 -0.009172669 -0.0152624035 0.50569135
0000b0 b3 fa 79 3e 71 9d 40 3e 1a 08 18 3e 29 01 b8 3d
       0.2441204 0.18810059 0.1484684 0.08984596
0000c0 2c f6 9b bd 9d 01 e9 3e 17 f3 9a bd d9 46 01 be
       -0.07615313 0.45509043 -0.07565897 -0.12624682
0000d0 b9 ea 24 3e 3b f4 e8 bd 56 8c 32 be 32 c3 9a bd
       0.16105165 -0.11374708 -0.17436346 -0.07556762
0000e0 ea b0 27 be ae 70 78 3e 6d a3 b6 bd 6c db b8 3e
       -0.16376081 0.24261734 -0.0891789 0.36104906
0000f0 00 bf ec bd 95 9b ba bd fb f2 ce 3b 05 1a 03 be
       -0.11559868 -0.09111706 0.0063155866 -0.12802894
000100 65 52 b9 bc b1 1f af bd cc 01 17 3e 91 04 ef 3e
       -0.022622297 -0.085509665 0.14746779 0.4668317
000110 e4 6d 1a 3e 29 f2 57 3e 02 05 12 bd a3 02 0d bd
       0.15080982 0.2108847 -0.035649307 -0.034426343
000120 d5 fc b9 bc 73 2f e0 be 90 9f 0d 3c 88 4b b9 3d
       -0.022703568 -0.437862 0.008644 0.090476096
000130 9a c6 b7 3d 01 c1 bc 3e 90 6f 97 3e 1b c5 ed bd
       0.08973427 0.36866 0.29577303 -0.116098605
000140 4e 0d bc be b6 41 9e bd 8c 01 00 3f 93 d5 38 3e
       -0.367289 -0.07727377 0.5000236 0.18050222
000150 f8 af 6b be fc 6c 03 3e 61 fd a4 bd 50 de 6c bd
       -0.23016346 0.12834543 -0.08056141 -0.0578292
000160 0e 40 85 be 72 a4 3f be 3f f0 52 be 5a 9b 79 3e
       -0.26025432 -0.18715075 -0.20599459 0.24375668
000170 dc bc 1c be 90 a0 98 3d 5f f2 c8 3d 18 6f 51 3d
       -0.15306419 0.074525 0.098118536 0.051131338
000180 1a 84 a7 be 22 c4 36 bf c3 e4 06 3e 85 f5 21 bd
       -0.32717973 -0.71393025 0.13173203 -0.039540786
000190 b9 75 1e 3e 88 7b 49 be 36 d9 6e 3e c4 75 b2 bd
       0.15474595 -0.1967603 0.23325047 -0.08713868
0001a0 de 91 8a 3e 82 cb d8 be 14 db db be db d7 a9 bd
       0.27064413 -0.42342764 -0.4294058 -0.08293124
0001b0 08 29 3b 3e 95 16 27 be ce 12 98 3e d3 ba 9b 3e
       0.18277371 -0.16317208 0.29701847 0.30415973
0001c0 5c 64 12 bd 75 70 af bd bf 52 69 be df a6 51 bf
       -0.03574024 -0.08566371 -0.22785471 -0.8189525
0001d0 b9 5a 9e 3d ee 1c d6 bd b7 0b 00 3e bc 8a 69 be
       0.07732148 -0.10454737 0.12504469 -0.22806829
0001e0 43 a8 78 3e 2e 6c 8f 3e 4f 50 95 bd 05 c9 18 3c
       0.24282937 0.28012222 -0.07290708 0.009325271
0001f0 bd fe ca 3d ba a0 d0 3e b9 d5 c0 be 23 d5 e1 bc
       0.09911869 0.40747625 -0.37663057 -0.027567452
000200 33 d5 82 3d fb e3 5d bf e2 15 af be 77 2d 6c be
       0.06388321 -0.86675996 -0.34196383 -0.23064218
000210 9e 17 01 be 5d dd 00 be 6e 9f 3f 3e b2 c5 c6 bc
       -0.12606665 -0.12584443 0.18713161 -0.02426419
000220 8e aa de bd 42 6b 14 bd d7 da 88 3e ec 41 c6 3e
       -0.108723745 -0.0362351 0.26729462 0.3872217
000230 69 33 ee 3d 71 16 e1 3d dd 33 b4 3d ab c2 e5 bd
       0.116308995 0.109906085 0.08798955 -0.112187706
000240 96 cf e9 3b fc 04 7e 3e 43 6c 8c 3d d5 5f 9b bd
       0.007135342 0.24806589 0.06856587 -0.07586638
000250 1b 20 9d 3e 8c cd 44 3e 5a 25 d7 3d 46 67 92 3e
       0.30688557 0.19219035 0.10505171 0.28594416
000260 af 6c 3e 3e f0 77 ca 3e 02 bb 61 3f 02 d9 05 bf
       0.18596147 0.3954463 0.88175976 -0.5228425
000270 53 ba 11 bd 4f be 87 be 35 c3 96 3e d2 f0 6b 3d
       -0.035578083 -0.2651238 0.29445806 0.05760271
000280 1d ea 45 3d f3 9c 7d be 16 99 9f 3d e9 06 53 3f
       0.04831897 -0.24766903 0.07792871 0.8243242
000290 1e c4 9b 3e d0 39 dc 3c 0e 69 8a bd fa 1c 49 be
       0.30423063 0.026883036 -0.06758319 -0.1963996
0002a0 ac 4d a1 3c 54 05 06 3d ab 3d 4b 3e 0d dc 8b bc
       0.019690357 0.032719925 0.19847743 -0.017072702
0002b0 8b 3f 67 3e af 22 b8 3e 86 fb ad 3c fd 82 c7 3d
       0.22582833 0.3596396 0.0212381 0.09741781
0002c0 2f cd 37 3d 28 f7 10 bf 3e 9d a6 be d8 2d 61 3d
       0.044873413 -0.5662713 -0.3254184 0.05497536
0002d0 0b 0b e6 3c bd ed ce 3c 1e 7b c5 3d 22 91 24 be
       0.028081438 0.025259847 0.09642623 -0.16070989
0002e0 87 92 ef bd fc b5 fd bc c0 e4 91 3e f7 f3 1d bf
       -0.1169787 -0.030970566 0.28494835 -0.61700386
0002f0 63 28 c3 3c ea f5 46 be be a3 c2 bd d1 11 01 bd
       0.023822969 -0.19429746 -0.095038876 -0.03151113
000300 ff 74 03 3e 24 cd 41 3e 14 e3 43 be d5 b1 e4 bd
       0.12837599 0.18925911 -0.19129592 -0.11166731
000310 75 9f f1 3d 52 24 b0 be a2 a2 3a be 4d 3a 5b bd
       0.11797992 -0.3440271 -0.18226102 -0.053522397
000320 d1 1e ec 3d 79 4e a0 bd 22 2d 29 be 0d cc 58 3d
       0.11529315 -0.078274675 -0.16521123 0.052928973
000330 18 7f e8 3d dc 89 11 3e 91 3e 76 3e fd a3 1b be
       0.11352366 0.14212745 0.24047305 -0.15199275
000340 0a a5 21 bd 91 70 32 be e7 ca 6e bd e2 bf bf be
       -0.039464034 -0.17425753 -0.05829897 -0.37451082
000350 87 95 a9 3e 29 e6 1f 3e a2 71 96 bd fe f1 95 3d
       0.33121893 0.15615143 -0.073458925 0.07321547
000360 13 b5 fe bd 2d 4a 7a 3e dd a5 2b 3e 3b e5 63 3e
       -0.12436881 0.24442358 0.1676249 0.22255413
000370 65 c0 7f be 73 6e 2e 3d 7c 58 8c 3e 02 f3 9d 3b
       -0.24975736 0.0425858 0.27411258 0.0048202286
000380 f2 1d 0a 3e 92 3c 56 3f 27 26 17 3e 06 06 aa bd
       0.13487986 0.8368617 0.14760648 -0.0830193
000390 ce a7 5e be c1 6c 5f bc aa 9d 00 bd 11 ba 00 3d
       -0.217437 -0.013636769 -0.03140036 0.031427447
0003a0 93 52 1d 3e f3 74 0d 3e d8 6e 09 be a1 e5 fc 3d
       0.15363531 0.13814144 -0.1342119 0.12348486
0003b0 ee aa 7d be 87 fe 42 be 32 41 02 be 39 4f e2 bd
       -0.24772236 -0.19042407 -0.12720183 -0.11050267
0003c0 6b 19 b7 3e 23 83 97 3e 58 a8 29 bc 16 72 3d 3e
       0.3576158 0.29592237 -0.010355078 0.18500552
0003d0 6f 24 e1 3d 92 45 4b 3e c2 86 cc bd be 53 1b 3d
       0.10993277 0.19850758 -0.099866405 0.03792166
0003e0 a3 43 71 3e 4d fc 15 be f3 a2 61 bc ab 5e 30 be
       0.23560958 -0.14647026 -0.01377176 -0.17223613
0003f0 1a 73 8e 3e 42 26 d9 bd 5b 66 97 be 67 48 01 3e
       0.2782219 -0.10603 -0.2957028 0.12625276

fc.layers.layer_1.bias f4 [24]
000000 f6 6e 7b 3b 21 1c 92 bc df 6a 2d be 7c 68 61 be
       0.0038365698 -0.017835679 -0.169353 -0.22012514
000010 c4 5c 73 3d 53 38 e3 bc 49 c6 4d be dd 1f 2d 3e
       0.05941464 -0.027736818 -0.20095171 0.16906686
000020 48 bc bb 3d 12 b5 98 3d 0c 48 09 be 3a 12 35 be
       0.09166771 0.074564114 -0.1340639 -0.17682734
000030 86 52 bd bd db 81 03 3e 3a 0e d0 3d fd 60 05 3e
       -0.09244256 0.12842505 0.101589635 0.1302528
000040 4c ca 6e 3d 30 c5 19 be d9 94 3d be ce 25 ad 3d
       0.058298394 -0.15016627 -0.18513812 0.08454476
000050 0a 08 af 3d 85 3e af bd 11 77 62 bd d3 78 ee 3a
       0.08546455 -0.085568465 -0.05528933 0.0018193967

fc.layers.layer_2.weight f4 [24, 24]
000000 d1 84 8d be 38 70 a2 bd c1 23 c7 bd 3c 97 02 3e
       -0.27640393 -0.0793156 -0.097236164 0.12753004
000010 5a 86 af 3e 6a 99 44 bf e8 2f 54 be ff ab b1 be
       0.3428219 -0.7679659 -0.207214 -0.34701535
000020 4f 71 8c bd 87 0d f6 3d d5 7d 88 3d 28 62 42 be
       -0.068575494 0.12014299 0.066646256 -0.18982756
000030 83 41 9e 3d e4 e5 4a be 40 d0 90 bd 74 7b 03 be
       0.07727339 -0.19814259 -0.070709705 -0.12840062
000040 01 13 cd bc fa d6 96 3e cf 4f b4 3e 3e 94 d0 bd
       -0.025033476 0.2946089 0.3521714 -0.10184525
000050 16 01 a3 bd 87 20 e9 be f6 1c 05 be 00 7b 88 be
       -0.079591915 -0.4553263 -0.12999329 -0.26656342
000060 e6 b2 f8 bb 7a 15 40 3c ea bb a6 3d c3 41 23 be
       -0.0075896857 0.01172387 0.081413105 -0.15943055
000070 ff 08 a4 bd d6 33 cc bd 4f 6f 31 3e 88 bf 6d bd
       -0.08009528 -0.099708244 0.17327617 -0.058043987
000080 c7 b6 fc 3d b5 50 51 be 23 79 1b bc e4 6b 4d 3e
       0.123395495 -0.20440944 -0.00948933 0.20060688
000090 6a d6 70 bd 5c 06 22 be fa b2 12 bc 36 b9 cd bc
       -0.05879823 -0.15822738 -0.008953804 -0.02511273
0000a0 e6 6c 3f 3e aa ef 5f 3e 0b 88 35 3e 4d a8 9b 3d
       0.18693885 0.21868768 0.17727678 0.0760046
0000b0 79 8b 3b 3d 44 ba 1b 3e 4e 4b d4 bd da aa 87 3e
       0.04578731 0.15207773 -0.10365926 0.26497537
0000c0 af 61 d3 bd ec ec fb be 03 64 c8 bb b9 1f 92 3e
       -0.10321366 -0.49204195 -0.006115438 0.28539827
0000d0 6a 8a ec bd 08 00 80 be ff 00 c8 be 9b 3d 14 bd
       -0.11549838 -0.25000024 -0.3906326 -0.036191564
0000e0 7a 4c 5e be 2f 2a 8c 3e 37 67 0d bf 91 5b 08 bf
       -0.21708861 0.27375934 -0.5523562 -0.5326472
0000f0 66 55 c1 be ef 0f 72 3e 8a e0 4f 3e 57 bd db bd
       -0.37760466 0.2363889 0.20300499 -0.10729473
000100 df 01 e1 3c a6 89 36 3e 83 33 34 3f 21 86 a7 be
       0.027466713 0.17825946 0.703911 -0.3271952
000110 f2 c1 cb be fa f4 a9 bd de ef 25 3d aa 31 10 be
       -0.39796406 -0.08298679 0.04051196 -0.14081445
000120 6b 82 d8 bd de 69 14 3f 33 5f 87 bd e5 55 ea 3e
       -0.1057175 0.5797404 -0.06609955 0.45768657
000130 c3 47 be be 1d 1e 3e be 79 f4 ed 3e 5f d2 34 be
       -0.37164125 -0.18566175 0.4647558 -0.17658375
000140 84 7f 03 3f 15 24 62 be af 41 82 be 58 3c 9c 3d
       0.5136645 -0.22084077 -0.25440738 0.07628697
000150 1f aa 9e be af d1 b6 be 65 bb 5f 3d 67 c6 f7 3a
       -0.30989167 -0.3570685 0.054622073 0.0018903733
000160 8a a1 c8 3d 7f c8 2d be 57 9f 40 bd ba e2 ca be
       0.09796436 -0.16971014 -0.04702696 -0.39626104
000170 33 93 27 be 06 fe a7 3e 6c 53 a5 be dd 6f 5e be
       -0.16364746 0.32810992 -0.32290208 -0.2172236
000180 0a 8f d8 bd d2 65 0a 3e 51 a7 3e be 55 86 22 3e
       -0.105741575 0.13515404 -0.18618514 0.15871556
000190 98 1a 78 3e f1 3e 83 3e d7 3e 68 bd 4c 81 fb 3d
       0.24228895 0.25633958 -0.056700554 0.12280521
0001a0 6c 01 60 bd 28 0e 51 be 58 3c 40 3e 1a 65 a6 bd
       -0.054688856 -0.20415556 0.1877302 -0.08124752
0001b0 64 c6 fc 3c 05 6f 99 bd 41 df 32 3e 5d 69 11 be
       0.030856319 -0.074918784 0.17467977 -0.14200349
0001c0 58 25 4e 3e 38 60 ca 3d 4a 23 c5 3e b3 d9 c3 3d
       0.20131433 0.098816335 0.38503486 0.09563007
0001d0 3b 91 89 3e e4 19 4a be e3 82 81 3c 87 82 eb bd
       0.26868615 -0.19736439 0.015809482 -0.114995055
0001e0 60 ff cc 3d 93 19 b4 3e 7d 8e 2b be bd c4 bd be
       0.100096464 0.35175762 -0.16753574 -0.37064162
0001f0 1d 8a ff be f0 d2 90 3d 2a 95 fd 3e 35 cd f2 be
       -0.4991006 0.07071483 0.49527866 -0.47422186
000200 4e db 45 3d 94 ff 50 3e c3 60 0b 3f a3 0a c6 3d
       0.04830485 0.20409995 0.5444452 0.096699975
000210 80 1e 89 3e f6 ba 6d 3e 3b e7 c0 3d a2 a6 55 bb
       0.26781082 0.23215851 0.09419104 -0.0032600542
000220 aa b2 56 be 1c 63 82 3e ed bd 27 3f d4 33 5c 3f
       -0.20966592 0.2546624 0.6552418 0.86016583
000230 85 bc 3a 3d c9 5e 28 3e d3 ac 5d 3d 8c b8 42 bd
       0.045589942 0.16442408 0.054119896 -0.04753928
000240 e8 4f bc bd 69 fd 7d be 48 8b 80 bd 16 08 8e 3e
       -0.091949284 -0.248037 -0.06276566 0.27740544
000250 19 79 15 bd dd 74 96 3e c7 b3 5d be 9f 36 a3 3d
       -0.03649244 0.29386035 -0.21650611 0.079694025
000260 11 85 cf 3c d4 1e 40 3b 69 ea 03 be 73 9a 00 3f
       0.025332006 0.002931525 -0.12882389 0.5023567
000270 46 17 94 be 47 e9 55 be 0c e8 ca bd 4f b5 1d bf
       -0.28924006 -0.2088977 -0.09907541 -0.6160478
000280 a8 e2 f0 3d fe eb d0 3c d4 14 3a bf 14 83 1a 3e
       0.11761981 0.025503155 -0.7268803 0.15089065
000290 90 4e 91 be 35 8d 54 be ef 9b d6 3a c5 61 85 be
       -0.2838025 -0.20756991 0.0016373376 -0.26051155
0002a0 95 7a e1 3d 35 3f ff 3e 8f 17 07 3d 68 b1 2f 3e
       0.11009709 0.4985291 0.03298145 0.17157519
0002b0 a0 e6 5b be 2a 89 63 3d 31 fe 78 3d 8e 7b 16 be
       -0.21474695 0.05555073 0.06078929 -0.1469557
0002c0 bc 22 9f 3d 7d 16 c3 be 13 9c 1a bf 39 c8 cd 3d
       0.07770297 -0.38103095 -0.603944 0.10047955
0002d0 50 86 d2 3d b2 93 99 be 98 14 3b 3d 88 dd f7 3c
       0.10279524 -0.29995495 0.045673937 0.030257002
0002e0 af aa ef 3d 0b ed fc bd 7f 6b e2 be 29 8a a6 be
       0.11702477 -0.123499 -0.44222638 -0.32527283
0002f0 d6 c9 bb bd 05 55 c2 bd 40 79 4a bd aa e5 df 3c
       -0.091693565 -0.094888724 -0.04943204 0.027331192
000300 e2 c1 8c 3e 1a 83 b6 3e 87 cd 0a be b1 f4 d0 3a
       0.2749167 0.35646898 -0.13554965 0.0015942064
000310 e1 7d 3a be 9e 24 19 3e 3e 38 01 3e 95 cb 89 bc
       -0.18212081 0.14955375 0.12619111 -0.016820708
000320 ae 5a 20 3e 48 d4 39 be 06 ec 8b 3e b4 fd 42 bd
       0.15659592 -0.18147385 0.2732851 -0.04760523
000330 c4 12 30 3d 57 9b ef bc 42 07 47 3d c1 78 e6 bc
       0.042986646 -0.029248876 0.048590906 -0.028133752
000340 fd 3f a5 bd 93 c5 f8 3d 4e 46 4e 3f 98 94 9d 3d
       -0.080688454 0.12147059 0.80576026 0.07694358
000350 65 48 11 3d 24 6c 91 3e 20 72 6b be 47 a6 b8 bd
       0.03546943 0.28402817 -0.22992754 -0.0901609
000360 d9 a5 1c be ca ee af 3e 30 ee 40 be f4 39 25 3f
       -0.15297641 0.3436187 -0.18840861 0.64541554
000370 5b 8b 7d 3d 1c 59 35 3f 79 06 a4 bd cb 7d b2 3e
       0.061900478 0.70839095 -0.08009047 0.34861597
000380 44 50 ba bc e2 94 99 bd 34 b5 ab 3e e2 9e 2a be
       -0.022743352 -0.074991 0.33536685 -0.16662171
000390 06 db 44 be 35 f3 09 3e bf d9 96 3e 5b 12 c1 3e
       -0.19224176 0.13471682 0.29463002 0.37709317
0003a0 2d a8 ed 3d cc 2c 65 bd 9e f8 a2 3b 81 81 f0 3e
       0.116043426 -0.055950925 0.004973485 0.46973804
0003b0 14 4d c4 3d 1d 56 e7 be fd 03 13 3d 3e 07 47 be
       0.09585014 -0.45182887 0.035892475 -0.19436356
0003c0 d5 42 e1 bd bd 81 a7 bc 17 14 fa bd 57 72 f3 3d
       -0.10999075 -0.020447606 -0.12210863 0.11887043
0003d0 ee 3c cb 3e 0c 36 3d bd 1c 80 bf be 7b 95 25 be
       0.39694923 -0.04619412 -0.37402427 -0.16170304
0003e0 00 d8 ee bd 64 eb e2 bd 5f 48 dd 3c c6 ac 14 3d
       -0.116622925 -0.110800534 0.027012048 0.036297582
0003f0 a4 7c b5 bd 8f 82 33 3d b6 e9 44 3e c2 43 1e be
       -0.08861664 0.043825682 0.19229779 -0.15455535

fc.layers.layer_2.bias f4 [24]
000000 e5 ec 8b 3c 7a 94 07 3e 5d b3 19 bd b5 b6 00 be
       0.017080734 0.13240233 -0.03752457 -0.12569697
000010 8e 53 43 bd bd da 99 bc 12 ff 12 3c e1 86 1d 3d
       -0.047687106 -0.01878106 0.008971946 0.03845871
000020 b0 6c 8f bd 8f 98 04 be ee 30 20 3d 22 a7 1f be
       -0.07003152 -0.12948821 0.039109163 -0.155911
000030 56 73 be 3d 72 a6 6e 3c 02 32 17 3e 0f 32 05 bd
       0.09299342 0.014566051 0.1476517 -0.032518443
000040 f0 fa 92 3d d9 93 f6 3d 4d b6 85 bd d8 1d f4 bd
       0.07176769 0.120399185 -0.06528912 -0.11919755
000050 22 87 4c bd 36 78 56 bd 26 6b 20 3e b9 cc 13 3e
       -0.04993356 -0.052360736 0.15665874 0.14433564

fc.layers.layer_3.weight f4 [24, 24]
000000 05 a1 69 bd 6d 39 a0 bd 18 07 a1 3d cc cc 31 be
       -0.057038326 -0.07823453 0.07862681 -0.1736328
000010 15 ce 22 be 40 69 3b 3e ef ef 7d bd 1d cd 97 bd
       -0.15898927 0.18301868 -0.061996397 -0.07412169
000020 79 2b e5 bd 9a 1d e8 bd ef 31 d4 bd c3 e5 f7 bc
       -0.111899324 -0.11333771 -0.103610866 -0.030260926
000030 e7 3d e2 bd 5d 0f d0 bc 64 21 b6 3d 83 ce 22 bd
       -0.11046963 -0.02539795 0.088930875 -0.039747726
000040 e9 59 54 be 7e 67 c7 3d 02 04 4b 3e b2 b1 9b 3d
       -0.20737423 0.097365364 0.19825748 0.07602252
000050 01 9f d2 bd 97 94 6c bd 80 2c e8 bd c3 b9 10 be
       -0.10284234 -0.057758894 -0.11336613 -0.14133362
000060 29 fe 12 3e 6e f8 38 be 32 33 63 bd 01 c1 16 bd
       0.14354767 -0.18063518 -0.055468746 -0.036805157
000070 1a 15 c6 bd 7c 04 9f be 21 4b 99 be 46 d1 59 3c
       -0.096719936 -0.3105811 -0.2994013 0.013294524
000080 bc 1b ea be b9 af e4 3c 68 9c 58 3e 3c d9 f2 bd
       -0.45724285 0.027915822 0.21153414 -0.118578404
000090 48 cd a6 3d 88 ab ed be 51 b7 8f 3d 33 fd 22 be
       0.08144623 -0.4641993 0.07017387 -0.159169
0000a0 82 7d b5 bd 66 e5 13 3e 36 55 aa 3e 23 e0 c5 3d
       -0.08861829 0.14442977 0.33268136 0.09661891
0000b0 ae 08 97 3d fd 9b 5a 3e 00 f8 b9 3e a1 20 96 be
       0.073747024 0.21348567 0.3632202 -0.2932177
0000c0 96 c3 6d bd 01 9c bc bd 66 29 79 3e 5b 3f 78 be
       -0.058047853 -0.09209443 0.24332199 -0.24242918
0000d0 87 25 aa 3d e5 35 06 3e 72 fb 6f be 91 dc f8 3d
       0.08307939 0.13106497 -0.23435763 0.12151445
0000e0 64 50 e3 bd b3 52 84 3d b6 8c e1 3d a4 da 4b 3e
       -0.11099318 0.06461086 0.110131666 0.19907624
0000f0 0e c0 5c 3e 4a a5 20 3d 74 3e 03 be bb 9e 86 be
       0.21557638 0.039220132 -0.12816793 -0.26292977
000100 f2 db 6b be 07 70 fc bd 0b 35 bd 3b 7c 99 52 3e
       -0.23033121 -0.12326055 0.0057741455 0.20566362
000110 a4 52 8e 3d 34 bf 13 be 70 23 a6 bd 19 4f 08 be
       0.06949356 -0.14428407 -0.08112228 -0.13311423
000120 8a 2e dd bd 24 a6 43 bd 9a c8 72 3e 41 6d 42 be
       -0.10799892 -0.047765866 0.23709336 -0.1898699
000130 1f 5b 68 be 51 fa b5 3d be 44 39 3e 8d 75 93 bb
       -0.2269101 0.08885635 0.1809263 -0.004500097
000140 2c cb 9d be 5f 2c 38 bd 15 38 2b be 1e fa 20 3e
       -0.3081907 -0.04496419 -0.16720612 0.15720412
000150 7d 92 48 bd 13 1e 84 be 1f 0c 5d bd ea 88 1c be
       -0.048967827 -0.25804195 -0.053966638 -0.15286604
000160 ff 7f 2c be 6d e1 7d bd 44 11 b5 3d 3a 5a f5 3d
       -0.16845702 -0.06198256 0.08841184 0.119801
000170 bc 0b 33 3e 2b 59 79 3e aa 0b 66 3e e7 25 11 bd
       0.17484945 0.24350421 0.22465387 -0.035436537
000180 1d 8b 4f 3e 00 f5 11 bd e8 86 fc bd 7b ad 37 bd
       0.20267911 -0.03563404 -0.12330419 -0.04484318
000190 92 a3 ab 3d c7 ec 80 bd 22 54 20 3e 6d a9 0e be
       0.08380808 -0.06295162 0.15657094 -0.13931818
0001a0 1a 13 3a 3d 07 48 6e bd 27 20 f3 3c 02 3e 8a bc
       0.045428373 -0.05817416 0.029678417 -0.01687527
0001b0 62 41 06 be d5 8a 0a 3d ad ef af 39 27 f9 fa 3d
       -0.13110879 0.033823807 0.00033557173 0.12254553
0001c0 f5 00 7b bd 2c 63 08 3e e7 c1 06 3e 70 cf ca bb
       -0.06128021 0.13319081 0.13159905 -0.0061892793
0001d0 16 93 4b be 61 af a7 bd c3 11 94 3e ee 32 69 be
       -0.19880328 -0.08187748 0.289198 -0.22773334
0001e0 aa 02 56 be 56 29 63 3d b6 66 91 bd 23 00 2e 3e
       -0.20899454 0.055459343 -0.07099669 0.1699224
0001f0 0b 14 fc 3d 41 ff b7 bd 7f a5 9d bd 25 e2 3e 3e
       0.123085104 -0.08984233 -0.076975815 0.18640955
000200 e9 96 e1 bc d8 03 0e 3e 70 d1 f1 bd ea 19 fe bd
       -0.02753778 0.13868654 -0.11807525 -0.124072865
000210 cf b8 71 be b0 65 1b 3e a1 01 04 3d 5b 15 d4 bd
       -0.23605655 0.1517551 0.032228116 -0.10355636
000220 83 34 9b bd d0 f3 b6 bd cb 6b 2e be 46 39 91 3e
       -0.07578375 -0.08933222 -0.17033307 0.2836401
000230 f4 44 b2 bd 40 39 03 be f0 01 8c be 07 cd 96 bd
       -0.08704558 -0.12814808 -0.27345228 -0.073633246
000240 98 a5 b0 3d bf 60 80 3e e8 c6 54 3e bd 97 be 3e
       0.086253345 0.2507381 0.20779002 0.37225142
000250 3b b0 9a be 85 8b d5 3e 68 8e 8a be 57 fa a5 3e
       -0.30212578 0.41708007 -0.27061772 0.32417557
000260 2c 19 a6 3e 8c 7d 05 bf 15 52 a6 be 00 22 10 3e
       0.3244108 -0.52144694 -0.324845 0.1407547
000270 8a 2e e3 3d a2 4c 19 3e 63 48 5d 3d 5b a8 4a 3e
       0.11092861 0.1497064 0.05402411 0.19790785
000280 d2 53 a5 3e 3a 11 37 3e ec 22 4c 3d 26 18 cd be
       0.32290512 0.17877665 0.04983799 -0.40057486
000290 2b 71 e4 3b 07 3f 69 be cb 81 5d be 8f 8b 88 3e
       0.0069714985 -0.2277795 -0.21631543 0.26668975
0002a0 73 d6 60 bd 0c de 48 3d 01 6a 63 3d ab aa db bd
       -0.054892015 0.049039885 0.055521015 -0.10725912
0002b0 3a f2 b7 3d 56 f0 47 bd e1 72 d1 3c ec c2 cf 3d
       0.08981748 -0.048813187 0.025567474 0.101446
0002c0 4a 1a 51 3e 58 04 58 be 37 d3 eb 3c bc fa c7 3d
       0.20420185 -0.21095407 0.028787239 0.09764621
0002d0 19 e3 03 bc 34 5d 8b bd 40 95 48 3d f9 bb 87 bd
       -0.00804975 -0.068048865 0.04897046 -0.0662765
0002e0 9c bd 78 bd 70 df 42 3d c9 b3 24 3c 35 52 9c 3d
       -0.0607277 0.047576368 0.01005263 0.07632867
0002f0 2f ef aa bd 13 47 e7 bd 5d ce 56 3b da fc 3b bd
       -0.08346402 -0.11292853 0.003277681 -0.045895435
000300 22 67 42 be 54 81 24 be a1 d6 16 be bb f2 e0 3d
       -0.18984655 -0.1606496 -0.14730312 0.10983797
000310 f7 be cd bd 7e 7f 57 3e bd e2 5e 3e 38 87 83 3e
       -0.10046189 0.21044728 0.21766181 0.256891
000320 ab 49 21 3d 23 dc 25 bd 58 1d f6 bd 6b 43 e6 be
       0.039376896 -0.04049314 -0.120173156 -0.4497331
000330 82 3a a8 bc cc 4f 05 3e 8a 47 11 3e 3c 06 29 bd
       -0.020535711 0.13018721 0.14187446 -0.04126571
000340 f2 fc 96 3d e9 94 48 be c2 13 dd 3e 96 c9 91 3d
       0.07372464 -0.19588055 0.43179137 0.071185276
000350 71 c5 4d 3e 53 55 92 be d1 85 ae 3e 98 3d 37 be
       0.20094849 -0.28580722 0.3408647 -0.1789459
000360 85 fc c0 bc 23 b7 3c 3e d0 05 ef 3d 69 50 81 3e
       -0.02355791 0.18429236 0.116710305 0.2525666
000370 b7 3d 3f be 2d 3a a1 be 54 34 78 3a 4b 11 c5 3d
       -0.18675886 -0.31489697 0.0009468247 0.09622439
000380 e8 01 b3 bc 65 fc 5e 3d 02 9e b1 bd 69 e7 10 be
       -0.021851495 0.05443992 -0.08672716 -0.14150776
000390 11 97 10 be e0 c7 a3 bd 31 43 b7 bd 6a 82 c7 3d
       -0.14120127 -0.079971075 -0.089483626 0.097416714
0003a0 62 17 39 3e 0f aa b6 bd ac 45 25 3d 7e fb 2f 3e
       0.18075326 -0.08919155 0.040349647 0.1718578
0003b0 80 13 0b 3e 37 0b 22 be 69 52 5b 3e 09 75 0b bd
       0.13581657 -0.1582459 0.21418156 -0.03404716
0003c0 f9 db e8 3c 52 3e 87 bd b4 3e 33 bd 83 f5 77 3d
       0.028425204 -0.066036835 -0.04376097 0.060536873
0003d0 9c cd b4 3d c9 bc d9 3c 5a 7d 00 bd 0d 45 17 bd
       0.088282794 0.026579278 -0.031369545 -0.036931086
0003e0 64 4f 02 be d3 6b 91 3c 93 5d a2 bd 05 55 0d be
       -0.12725598 0.01775161 -0.07928004 -0.13801964
0003f0 25 ed fe bc 8a 02 88 3c 0f d9 01 bd e7 c5 e4 3c
       -0.031118939 0.016602773 -0.031701144 0.027926398

fc.layers.layer_3.bias f4 [24]
000000 07 02 67 3e f4 26 7b 3d 6c aa 38 3d 03 b8 83 bd
       0.22559367 0.061316445 0.045084402 -0.06431582
000010 9d a0 bf bd 5d 93 2c be bc a2 16 bd 22 86 cf bb
       -0.093568064 -0.1685309 -0.03677629 -0.0063331285
000020 fa c0 d9 3c 93 ae 51 3e c8 0a 08 b9 46 e5 37 bc
       0.026581276 0.20476751 -0.00012973987 -0.011224097
000030 24 33 00 bd 35 63 2b bb 02 0e 88 bc ac 51 0b bc
       -0.03129877 -0.0026151661 -0.016608242 -0.008503359
000040 72 cb a6 3c 6f cc 99 bc ac 09 bb 3b c6 d5 67 3d
       0.020360682 -0.01877424 0.00570794 0.056600355
000050 10 78 43 be 89 95 7f 3d b1 e7 33 bb 38 d3 2c 3d
       -0.19088769 0.062398467 -0.0027451331 0.04219362

fc.layers.layer_4.weight f4 [2, 24]
000000 79 c5 ad 3d 2e 14 f7 bd ed 1d 92 bd 3e 12 bf bd
       0.084849305 -0.12064396 -0.07134614 -0.09329651
000010 a0 56 e0 bd 61 61 33 be 5e 10 b5 bd a7 0a 59 bb
       -0.109540224 -0.17517616 -0.088410124 -0.0033117922
000020 92 82 39 be c8 3e 42 3e 5d 8b 94 3a da c2 80 3a
       -0.18116215 0.18969262 0.0011333037 0.0009823695
000030 92 2e fb bd 9d 50 44 3b a0 3a 7d 37 1b 1c e7 bd
       -0.12264742 0.0029955276 1.5093625e-05 -0.112846576
000040 37 cf ef bd bb 57 0e 3e b3 14 97 39 69 e0 59 be
       -0.11709445 0.13900654 0.00028816386 -0.21277012
000050 d6 37 4e be 5d 91 25 bd 6e 61 49 bd e1 ca 2d 3e
       -0.20138487 -0.040421832 -0.04916518 0.16971923
000060 b4 18 37 3e ff f1 78 bc b1 dd ac 3c cd ec ba bd
       0.17880517 -0.015194415 0.021101804 -0.091271974
000070 57 62 0f be 1c ae 03 be 53 59 a7 bb 30 1a 72 3a
       -0.14002357 -0.12859386 -0.005107084 0.00092354696
000080 2d 3c 07 3d f1 74 29 3e bc 26 8f b9 bd b3 88 39
       0.033016372 0.16548516 -0.00027303945 0.00026073857
000090 99 d1 9b 3c 8a 9e 2f ba 37 23 99 39 a3 49 0c 3d
       0.019020842 -0.00066993444 0.0002920867 0.034249913
0000a0 e0 a5 0b 3d 47 ce ac 3c d7 27 4a b9 93 ab 57 3d
       0.034093738 0.021094454 -0.00019279063 0.05265386
0000b0 03 7a b7 bd cf 22 15 ba 36 3b 5f 3c 9b 3d 79 3b
       -0.08958819 -0.0005689086 0.013624957 0.0038031104

fc.layers.layer_4.bias f4 [2]
000000 be be fa bd c3 a9 06 be
       -0.122434124 -0.13150696
