results/training_train_results/best_model_328.pt (torch, 27015 bytes, 14 tensors)

std f4 [1, 2]
0	0x3f800000	1.0
1	0x3f800000	1.0

mean f4 [1, 2]
0	0x00000000	0.0
1	0x00000000	0.0

dof2.std f4 [1, 2]
0	0x3f800000	1.0
1	0x3f800000	1.0

dof2.mean f4 [1, 2]
0	0x00000000	0.0
1	0x00000000	0.0

fc.layers.layer_0.weight f4 [8, 4]
0	0xbff7a448	-1.934701
1	0x3fb721de	1.430721
2	0xbd9f4c33	-0.07778206
3	0x3f1f0b24	0.62126374
4	0xbefa5404	-0.48892224
5	0xc0598d38	-3.3992443
6	0x3e32ed2e	0.1747329
7	0xc0053d72	-2.0818753
8	0xbe56051a	-0.20900384
9	0x3ef4e075	0.47827497
10	0xbd6b8b9a	-0.05750618
11	0xbdb6f5a6	-0.089335725
12	0x3fd230a1	1.642109
13	0xc016793b	-2.3511493
14	0xbdf6c569	-0.12049372
15	0x3f8c993b	1.0984262
16	0x3f0a2e6a	0.5397707
17	0xbfc4ba55	-1.5369364
18	0xbe1f7933	-0.15573578
19	0x3fe84607	1.8146371
20	0x3f0579a4	0.52138734
21	0xbfd3ffc0	-1.6562424
22	0x3bcdf280	0.006285012
23	0x3fc79ff2	1.5595686
24	0xbee68d6a	-0.45029765
25	0x4005e49e	2.0920787
26	0xbd85516b	-0.0650967
27	0xc0a3e211	-5.121346
28	0x3edfb58a	0.4369319
29	0xbf96032b	-1.1719717
30	0xbd93a818	-0.07209796
31	0xc00c3acc	-2.1910887

fc.layers.layer_0.bias f4 [8]
0	0xbd4bfaf2	-0.049799867
1	0xbeba6e43	-0.36412248
2	0x3eb76bd6	0.3582446
3	0x3f0f069a	0.5586945
4	0x3ec668dd	0.3875188
5	0x3d039346	0.032122873
6	0x3ec47ea5	0.38377872
7	0x3e960c80	0.29306412

fc.layers.layer_1.weight f4 [8, 8]
0	0x3e6e047e	0.23243901
1	0xbe0c1822	-0.13681081
2	0xbeec492a	-0.4614957
3	0xbce8307a	-0.028343428
4	0x3d191ef7	0.037383046
5	0x3fa04add	1.2522846
6	0xbbdc36af	-0.006720386
7	0x3e288e20	0.16460466
8	0xbe244287	-0.16041003
9	0x3e0cd80e	0.13754293
10	0xbeb36152	-0.35035187
11	0x3d04e50b	0.032444995
12	0xbe8c9f19	-0.27465132
13	0xbea3d850	-0.3200097
14	0x3eb0ba52	0.3451715
15	0xbd13b93a	-0.036065318
16	0x3e9acd33	0.3023468
17	0xbe9f4077	-0.3110387
18	0xbec4c813	-0.38433895
19	0x3d9cde36	0.07659571
20	0x3e9a9408	0.30191064
21	0x3fb8eade	1.4446676
22	0xbd4d6554	-0.050145462
23	0x3bfcfed9	0.00772081
24	0x3ce4d291	0.027932437
25	0xbdb9e4d7	-0.09076851
26	0xbed6ad49	-0.4192908
27	0x3e03e1c9	0.12879099
28	0x3d4c3272	0.049852796
29	0xbf0ed838	-0.55798674
30	0xbe8eb55f	-0.2787275
31	0x3efa2bf3	0.48861656
32	0xbe41552f	-0.18880151
33	0xbe42724d	-0.18988915
34	0xbeb28e0e	-0.34874004
35	0xbe8e8e70	-0.27843046
36	0x3e5242e7	0.20533334
37	0xbe3eafed	-0.18621798
38	0xbea40e79	-0.32042292
39	0xbe003a57	-0.12522255
40	0x3da1020e	0.0786172
41	0x3e8449e0	0.25837612
42	0x3e5d7d67	0.21629868
43	0x3ea80025	0.3281261
44	0x3eaccea7	0.33751413
45	0x3eae0730	0.3398986
46	0xbd69a46c	-0.05704157
47	0xbed54544	-0.41654408
48	0x3e402480	0.18763924
49	0x3ce416a2	0.027842823
50	0x3ecdcff7	0.40197727
51	0x3b73a511	0.0037177245
52	0x3e8fc564	0.28080285
53	0xbd43bc83	-0.0477872
54	0xbe865e34	-0.26243746
55	0xbcb3b566	-0.021937083
56	0x3dd88b47	0.1057344
57	0xbd9fe987	-0.07808214
58	0x3ea318e2	0.31854922
59	0x3dadffc4	0.08496049
60	0xbe60deba	-0.21959963
61	0xbf5293e1	-0.82256895
62	0x3eac077c	0.3359946
63	0x3e5648e6	0.20926246

fc.layers.layer_1.bias f4 [8]
0	0x3e377aba	0.1791791
1	0x3e51aed0	0.20476842
2	0xbeb5ca54	-0.35505927
3	0x3e07cfdf	0.1326289
4	0xbe804581	-0.25053027
5	0x3e9b4a38	0.30330062
6	0x3e30c3c8	0.17262185
7	0xbe1d6a04	-0.15372473

fc.layers.layer_2.weight f4 [8, 8]
0	0x3de83544	0.113382846
1	0x3d3a6e8b	0.04551558
2	0xbe3e2bb8	-0.18571365
3	0xbec75d6b	-0.3893846
4	0x3b5e14ee	0.0033886987
5	0xbdc9a6bc	-0.09846255
6	0x3e305cdd	0.17222925
7	0x3e65ff05	0.22460563
8	0xbe611650	-0.21981168
9	0x3e65e826	0.22451839
10	0x3e962352	0.29323822
11	0xbdf60281	-0.12012196
12	0x3e28a828	0.16470397
13	0xbd28e637	-0.041235175
14	0xbf141578	-0.5784526
15	0xbcb63ae2	-0.022244874
16	0x3eb9ff4c	0.3632759
17	0x3e6f8dc2	0.2339392
18	0xbd17a9ea	-0.037027277
19	0x3e90bfd3	0.2827135
20	0x3ab2c50e	0.0013639049
21	0xbf3323da	-0.6997658
22	0x3d12d64f	0.03584891
23	0x3d47969c	0.048727617
24	0xbd2f71bd	-0.04283308
25	0x3e9234fb	0.28556046
26	0x3eb2ef7e	0.34948343
27	0xbed6f7be	-0.41985887
28	0x3e8619e1	0.2619162
29	0x3c796670	0.015222177
30	0x3e601c50	0.218858
31	0xbe2e8d18	-0.1704601
32	0x3deaffd7	0.11474579
33	0xbe5f3a00	-0.21799469
34	0xbf0ad7e2	-0.5423566
35	0x3eec9372	0.46206242
36	0xbd060d88	-0.03272775
37	0x3e1dd6a0	0.15413904
38	0x3dda259f	0.10651707
39	0x3dc7c67c	0.09754655
40	0x3ee68f97	0.45031425
41	0xbe044be9	-0.12919582
42	0xbe3f96d0	-0.18709874
43	0x3ecff90a	0.4061969
44	0x3cef0dd5	0.0291814
45	0xbef1f483	-0.4725686
46	0x3d0f7b7e	0.03502988
47	0x3e9f9829	0.31170776
48	0xbd856a5e	-0.065144286
49	0xbe98e4c4	-0.29862034
50	0x3e5a20fe	0.21301648
51	0xbe8bc7ff	-0.27301022
52	0xbeb62c51	-0.35580686
53	0x3ed93535	0.42423406
54	0xbe961a37	-0.29316875
55	0x3d76f7a8	0.060294777
56	0x3cbc4fe5	0.022987315
57	0xbda234f4	-0.07920256
58	0xbe050be8	-0.12992823
59	0xbed62e2a	-0.41832095
60	0xbd79acfd	-0.06095599
61	0x3e96fd6f	0.2949023
62	0x3e1b29cb	0.15152662
63	0xbe986694	-0.2976576

fc.layers.layer_2.bias f4 [8]
0	0xbe3736e7	-0.17892037
1	0xbdacf29c	-0.084447116
2	0x3c28ed14	0.01031043
3	0xbdfdf173	-0.123995684
4	0xbe038def	-0.12847112
5	0x3e943084	0.28943264
6	0x3e04a390	0.12953019
7	0xbe727fff	-0.23681639

fc.layers.layer_3.weight f4 [8, 8]
0	0x3e885d8e	0.26633877
1	0xbec8a957	-0.39191696
2	0xbe34b237	-0.17646109
3	0x3c872df5	0.016501406
4	0x3e840f9f	0.25793168
5	0x3dd75417	0.10514086
6	0x3d9b155c	0.07572433
7	0x3e93d032	0.28869778
8	0x3e6563dd	0.22401376
9	0xbf0e6f75	-0.5563882
10	0xbdc28d6d	-0.09499631
11	0xbe8468c5	-0.25861183
12	0x3e86b4f4	0.2630993
13	0x3f0e7f38	0.5566287
14	0xbe69a358	-0.22816217
15	0x3e8db39d	0.27676097
16	0x3e921dc8	0.28538346
17	0xbe559a12	-0.20859554
18	0x3e2673c0	0.16255093
19	0xbea95b87	-0.33077642
20	0x3eb4f39a	0.35342103
21	0xbde39753	-0.11112847
22	0x3e17f522	0.14839604
23	0x3e243a6f	0.16037916
24	0xbe14c698	-0.14528883
25	0xbef580e2	-0.47949892
26	0xbeb2a8e5	-0.3489448
27	0x3eebd4c8	0.46060777
28	0x3d1a5634	0.037679866
29	0xbba6a88d	-0.005086011
30	0x3da77ea5	0.081784524
31	0x3e11677b	0.14199631
32	0x3e9792ed	0.29604283
33	0x3eeb02aa	0.4590047
34	0x3e37d455	0.17952092
35	0xbe8d06ad	-0.27544156
36	0xbd23882c	-0.039924785
37	0xbda1e680	-0.079052925
38	0x3e9cda79	0.3063543
39	0x3d842fbd	0.06454418
40	0x3db20033	0.08691444
41	0x3dd0312b	0.10165628
42	0xbf655640	-0.8958473
43	0x3e8e74e5	0.27823558
44	0xbd1bed5b	-0.038068157
45	0xbed95cde	-0.42453665
46	0x3ead441d	0.3384103
47	0x3ef0acc7	0.4700682
48	0xbe28aa28	-0.1647116
49	0xbeaa8757	-0.3330638
50	0x3ee98002	0.45605475
51	0xbc8bd039	-0.017067062
52	0x3e0e9c5e	0.13926837
53	0x3e2e2a4f	0.17008327
54	0x3c95db72	0.018293116
55	0xbe1cf0c9	-0.15326227
56	0xbebe7bdf	-0.3720388
57	0xbe0d908c	-0.13824672
58	0xbe051973	-0.1299799
59	0xbe80029b	-0.25001988
60	0x3e477a41	0.1948023
61	0x3e86791a	0.26264268
62	0xbe9aae77	-0.3021123
63	0x3ee7ee3b	0.45298943

fc.layers.layer_3.bias f4 [8]
0	0xbea0b759	-0.31389883
1	0x3ea3662e	0.31913894
2	0x3e83054d	0.25589982
3	0x3bd2d6ac	0.0064342823
4	0x3db64a4d	0.089008905
5	0xbe23b1b8	-0.15985763
6	0xbd290624	-0.04126562
7	0xbe051ba9	-0.12998833

fc.layers.layer_4.weight f4 [2, 8]
0	0xbe4566e4	-0.19277531
1	0x3e802bd6	0.25033444
2	0x3db7e537	0.08979266
3	0xbe7b39b6	-0.24533734
4	0x3e81e136	0.25367135
5	0xbeccb491	-0.3998151
6	0x3dd896e4	0.10575655
7	0xbca915d3	-0.02064029
8	0xbea208a2	-0.3164721
9	0x3e0b61b6	0.13611493
10	0x3dd3f33a	0.10349126
11	0x3dd80d42	0.10549404
12	0xbe0359ab	-0.12827174
13	0x3dbec44f	0.09314787
14	0xbd1f13da	-0.03883729
15	0x3c0f55fb	0.008748527

fc.layers.layer_4.bias f4 [2]
0	0xbe8cc900	-0.274971
1	0xbe176a46	-0.14786634
