results/training_train_results/best_model_401.pt (torch, 33863 bytes, 14 tensors)

std f4 [1, 2]
0	0x3f800000	1.0
1	0x3f800000	1.0

mean f4 [1, 2]
0	0x00000000	0.0
1	0x00000000	0.0

dof2.std f4 [1, 2]
0	0x3f800000	1.0
1	0x3f800000	1.0

dof2.mean f4 [1, 2]
0	0x00000000	0.0
1	0x00000000	0.0

fc.layers.layer_0.weight f4 [24, 4]
0	0x3c86b7fe	0.016445156
1	0x402bad09	2.6824362
2	0x3e470367	0.19434892
3	0xc04ace7a	-3.1688523
4	0x405e26a6	3.471109
5	0xc062b1c4	-3.5421
6	0xbd3f0a49	-0.046640668
7	0xbfa36f80	-1.2768402
8	0x3f1ebc25	0.62005836
9	0x3f85065b	1.0392565
10	0xbd1ddbde	-0.03853976
11	0xbf4ad014	-0.7922375
12	0xbfb4df4d	-1.4130646
13	0x4014b54e	2.323566
14	0xbe968ea4	-0.294057
15	0x3fa84f6a	1.3149235
16	0x3f418266	0.755896
17	0x4068efa1	3.6396258
18	0xbd9a3e77	-0.075314455
19	0xbf828bb2	-1.0198882
20	0x3f42139d	0.7581118
21	0xc0647e88	-3.5702229
22	0x3e56342c	0.2091834
23	0x4044a3b8	3.0724926
24	0x3fcb5228	1.5884447
25	0xc05492f0	-3.3214684
26	0xbe0cb9e8	-0.13742793
27	0xc02ae356	-2.6701255
28	0xc00573ad	-2.0851853
29	0x3fce4b56	1.6116741
30	0xbd95384d	-0.07286129
31	0x4025fd94	2.5936022
32	0xbf0f4348	-0.5596204
33	0x3e59b029	0.21258606
34	0xbdd775d6	-0.10520522
35	0x406ec960	3.731041
36	0x3ebf10f4	0.37317622
37	0xbfaa1f1a	-1.3290741
38	0x3b6b0473	0.0035860806
39	0x3d217808	0.03942111
40	0xbeab6144	-0.33472645
41	0x400d13fa	2.2043443
42	0x3db3490d	0.08754168
43	0x402b1fb5	2.6738102
44	0xbf0298be	-0.51014316
45	0x3f3509f8	0.70718336
46	0x3ce14653	0.027499354
47	0x3e71cc13	0.23613004
48	0x3fa3397e	1.275192
49	0x3fdaca6e	1.7093027
50	0xbde5f67d	-0.112286545
51	0xbf59b2ed	-0.85038644
52	0x3eac2e76	0.33629197
53	0xbf562a44	-0.8365824
54	0xbe2ccca0	-0.16874933
55	0xbfa1e309	-1.2647411
56	0xbf2ffbc0	-0.68743515
57	0x4092d021	4.5879064
58	0xbe3c0aae	-0.18363449
59	0xc07b3710	-3.9252357
60	0xbed31b87	-0.4123194
61	0xbfead8ad	-1.8347374
62	0xbe289c5e	-0.164659
63	0x408dbfe9	4.4296765
64	0xbf116f49	-0.5681043
65	0x3fc91c54	1.571177
66	0xbd8becd9	-0.068322845
67	0x3f024ea1	0.5090123
68	0x3e60ebb4	0.21964914
69	0xbf44113b	-0.7658879
70	0x3dbac299	0.09119148
71	0xc000c4e6	-2.0120177
72	0x3fc9777d	1.573959
73	0xbfba42d7	-1.4551648
74	0xbd76a52b	-0.06021611
75	0xbf93dc4a	-1.1551602
76	0x3dc60920	0.09669709
77	0xbe958ac1	-0.29207423
78	0xbd823299	-0.06357307
79	0xc00fd008	-2.2470722
80	0x3e1a4873	0.150667
81	0x3f29d46e	0.66339767
82	0x3d585199	0.052812193
83	0x3f91275e	1.1340139
84	0x3f5cf789	0.8631521
85	0x4020f7b3	2.5151184
86	0xbd61f8b1	-0.05516881
87	0xbf3b195b	-0.73085564
88	0x40019d1e	2.0252147
89	0xbe689212	-0.22711971
90	0x3d9c99f6	0.07646553
91	0x402910be	2.6416469
92	0x3f613081	0.87964636
93	0xc03b0d23	-2.9226768
94	0xbd4cd483	-0.050007354
95	0xc06dec23	-3.7175376

fc.layers.layer_0.bias f4 [24]
0	0xbf876708	-1.0578318
1	0xbd48e647	-0.049047735
2	0x3e98fcc3	0.29880342
3	0x3f239515	0.63899356
4	0xbd8b247f	-0.067940705
5	0xbf0c6c41	-0.5485268
6	0x3e8939cf	0.26801917
7	0xbf0ee6a2	-0.5582067
8	0x3ec7ac38	0.3899858
9	0xbde2138f	-0.11038887
10	0xbee53000	-0.44763184
11	0xbef63ad8	-0.4809177
12	0x3e3cbb45	0.18430813
13	0x3e8a0eeb	0.26964507
14	0x3f51d1ce	0.8196076
15	0x3f1ce1c4	0.6128199
16	0x3f0c22a4	0.5474036
17	0xbf02669d	-0.50937825
18	0x3f22b54a	0.63557875
19	0x3ef66d0e	0.48130077
20	0xbf4ca91d	-0.79945546
21	0x3e0d3185	0.13788421
22	0xbe57bc9e	-0.21068045
23	0x3e2ea696	0.17055735

fc.layers.layer_1.weight f4 [24, 24]
0	0x3d6b17f8	0.057395905
1	0xbdc5fe9b	-0.09667703
2	0xbdc9d470	-0.09854972
3	0xbd8ea9e4	-0.06965998
4	0xbd9a9590	-0.07548058
5	0xbe8bb757	-0.27288315
6	0x3d25becd	0.040465165
7	0xbe6636b6	-0.22481808
8	0xbdd2db12	-0.102956906
9	0x3ed5b2a6	0.4173786
10	0x3e332135	0.17493136
11	0xbdcbcdfd	-0.099513985
12	0xbb7d827b	-0.0038682509
13	0xbdb6094f	-0.08888494
14	0x3e8d6efc	0.27623737
15	0xbcc4c436	-0.024019342
16	0x3e2bb83e	0.16769502
17	0x3d8cdf96	0.06878583
18	0x3d7f9aca	0.062403478
19	0xbe218715	-0.15774186
20	0xbe721ff7	-0.23645006
21	0x3e6b0310	0.22950387
22	0xbe61e78a	-0.22060981
23	0xbe10fbd7	-0.1415857
24	0xbe220e6f	-0.15825818
25	0x3e1659dd	0.14682718
26	0x3dc0ef17	0.09420603
27	0xbd87b094	-0.066254765
28	0x3e13f784	0.14449888
29	0x3e0eed22	0.13957646
30	0xbc9e400a	-0.019317646
31	0x3e521f02	0.20519641
32	0xbdb799fa	-0.089649156
33	0xbec75f07	-0.38939688
34	0x3d50292e	0.050820522
35	0xbe3b31f5	-0.18280776
36	0xbe14e177	-0.14539133
37	0x3d6ffd20	0.05859101
38	0xbba3fefe	-0.0050047627
39	0xbe638853	-0.22219972
40	0x3d192832	0.03739185
41	0xbe3c9883	-0.18417554
42	0xbe762908	-0.2403909
43	0x3e6296b7	0.22127806
44	0x3dbe9c95	0.093072094
45	0x3c8caea7	0.017173124
46	0x3e9ed645	0.3102285
47	0xbdb272a6	-0.08713274
48	0x3e4abe50	0.19799161
49	0x3df7812a	0.12085183
50	0x3ea85180	0.3287468
51	0xbe10782b	-0.1410834
52	0xba090848	-0.0005227369
53	0xbdc210b3	-0.094758414
54	0x3df3758b	0.11887654
55	0x3daa127b	0.08304306
56	0x3d69a8cf	0.057045754
57	0x3d389495	0.045063574
58	0x3e31a4dc	0.17348045
59	0xbf0282a9	-0.5098062
60	0xbd35b4ad	-0.04436176
61	0xbdf0004c	-0.117188066
62	0x3e46cfcd	0.19415207
63	0xbe4cadcc	-0.19988173
64	0xbe241de2	-0.16027024
65	0x3d5dea65	0.054178614
66	0xbe27a90b	-0.16373079
67	0xbbccee15	-0.0062539675
68	0x3de1d997	0.1102783
69	0x3e48fba8	0.19627249
70	0xbdb49cdf	-0.08818983
71	0xbd2b9870	-0.041893423
72	0x3e035f99	0.12829436
73	0x3d901220	0.07034707
74	0x3cea66ec	0.02861353
75	0xbe15f3b7	-0.14643751
76	0x3df04d2c	0.11733469
77	0x3dec6f91	0.11544717
78	0x3dc8b376	0.097998545
79	0x3d8a641e	0.06757377
80	0xbcaa5a6e	-0.020795073
81	0xbf0508b5	-0.5196641
82	0xbe0c4965	-0.13699873
83	0x3d591722	0.053000577
84	0x3e3dd5db	0.1853861
85	0x3c870b10	0.016484767
86	0xbc9020d1	-0.017593773
87	0xbe29d4d8	-0.165851
88	0x3e234042	0.15942481
89	0xbe8b5b07	-0.27217886
90	0xbe635c22	-0.22203115
91	0xbd5bbd27	-0.053647187
92	0x3d1308e1	0.03589714
93	0x3deff808	0.1171723
94	0x3e99634b	0.29958567
95	0xbcb515db	-0.022105148
96	0x3d7e7d82	0.062131412
97	0x3dbea6f4	0.093091875
98	0x3e1ad87c	0.15121645
99	0xbc448247	-0.011993951
100	0x3c9bb00d	0.019004846
101	0xbe3e7ba4	-0.18601853
102	0x3c129e91	0.008948938
103	0xbe10ff89	-0.14159979
104	0xbe34b9aa	-0.1764895
105	0x3e9ebf31	0.31005242
106	0x3dcda88e	0.10041915
107	0xbe9236ed	-0.2855753
108	0x3d388c84	0.04505588
109	0x3de19432	0.11014594
110	0x3e4beccc	0.1991455
111	0xbd9e9ae7	-0.07744389
112	0x3c6f8755	0.014619668
113	0x3e268603	0.16262059
114	0xbe2f2ab3	-0.17106132
115	0xbe0ad004	-0.13555914
116	0xbe2acff4	-0.1668089
117	0xbcd22cf8	-0.025656208
118	0xbe8fe546	-0.2810461
119	0xbe7309b4	-0.2373417
120	0x3d61b0d5	0.05510028
121	0xbdccc3bb	-0.0999827
122	0x3e0dd052	0.13848999
123	0x3e260bb8	0.16215408
124	0xbd9868ef	-0.074418895
125	0xbded6470	-0.115914226
126	0xbd9ae199	-0.075625606
127	0xbdf20de2	-0.11819054
128	0xbead56f5	-0.33855405
129	0x3e30c0ee	0.17261097
130	0x3def2626	0.11677198
131	0xbe143d53	-0.14476518
132	0x3e19ae07	0.15007792
133	0xbd33e203	-0.043916713
134	0x3e6115e4	0.21981007
135	0xbe36d6d6	-0.17855391
136	0xbd9e2084	-0.077210456
137	0x3dc00779	0.09376425
138	0x3e16fffc	0.14746088
139	0x3db3689a	0.087601855
140	0xbe0bb662	-0.13643792
141	0x3ccfc504	0.025362499
142	0xbe84f048	-0.2596457
143	0x3d1ff178	0.039048642
144	0xbe58b633	-0.21163253
145	0x3dad2166	0.08453636
146	0x3e409bd1	0.18809439
147	0xbe337eeb	-0.17528884
148	0x3e92c42b	0.2866529
149	0x3d0e306b	0.034714144
150	0xbd4ee6ec	-0.050513193
151	0xbdbf5225	-0.0934184
152	0xbe58056e	-0.21095821
153	0x3e075bbc	0.13218588
154	0xbc412b35	-0.0117900865
155	0x3d3236de	0.043509357
156	0x3e075869	0.1321732
157	0x3ca0c130	0.019623369
158	0x3e0ecf0f	0.13946174
159	0xbda2c26c	-0.07947239
160	0xbd37848d	-0.044804145
161	0x3e31883d	0.17337127
162	0xbe80b153	-0.25135288
163	0x3d25a97f	0.040444847
164	0x3ce6b5ac	0.0281628
165	0x3ded1b10	0.115774274
166	0xbd596033	-0.05307026
167	0xbe3f2c76	-0.18669304
168	0xbda87a24	-0.082264215
169	0xbd8b270e	-0.067945585
170	0xbeb3cce1	-0.35117248
171	0x3db300a8	0.087403595
172	0xbe3f8c20	-0.18705797
173	0x3e39f6be	0.18160531
174	0x3d68eb39	0.05686495
175	0x3c3f6f4b	0.011684249
176	0x3e99d031	0.3004165
177	0x3e59d0c9	0.21271051
178	0xbdb13b9c	-0.08653948
179	0x3e3ecc87	0.18632708
180	0x3cedd54b	0.02903237
181	0x3d3fd6f0	0.04683584
182	0xbe02a01c	-0.1275639
183	0x3ceaa7b5	0.028644422
184	0x3e349de1	0.17638351
185	0xbde8776c	-0.11350903
186	0x3db117a4	0.08647087
187	0xbe6639c9	-0.22482981
188	0x3e82e4ff	0.25565335
189	0x3dd3cd82	0.10341932
190	0x3e48a802	0.1959534
191	0x3e563bf2	0.20921305
192	0xbe650111	-0.22363688
193	0x3e1dfc40	0.15428257
194	0x3e336276	0.17518029
195	0xbda81e62	-0.0820892
196	0xbd54c9c4	-0.05195023
197	0x3d2fa7de	0.0428847
198	0xbe35c31c	-0.1775021
199	0xbd4b14be	-0.04958033
200	0x3e78d6b8	0.24300659
201	0x3e9e96b8	0.30974364
202	0xbd21aa2c	-0.03946893
203	0xbde9c79a	-0.11415024
204	0x3caed1c2	0.021340255
205	0xbd19f309	-0.037585292
206	0xbe6f62d1	-0.23377539
207	0x3e260015	0.16210969
208	0x3e1eea3d	0.15519042
209	0xbda66266	-0.08124237
210	0xbe1e9685	-0.15487106
211	0xbd93b1ca	-0.07211645
212	0x3ea9d48c	0.33169973
213	0xbdb438e5	-0.08799914
214	0x3d870bce	0.065940484
215	0xbd03b293	-0.032152724
216	0x3e18bbbc	0.14915365
217	0x3db59adb	0.08867427
218	0x3d52ae67	0.051435854
219	0xbe10c8c4	-0.14139086
220	0xbd8aaa57	-0.06770771
221	0xbe0695cb	-0.13143079
222	0xbd81cf03	-0.063383125
223	0xbe4638c6	-0.19357595
224	0xbe86b601	-0.26310733
225	0xbe1b3225	-0.15155847
226	0xbe1ea3e2	-0.15492204
227	0x3e8c6c5f	0.2742643
228	0x3e704714	0.23464614
229	0x3e4918c7	0.19638358
230	0x3daf5040	0.08560228
231	0xbd64997a	-0.05581043
232	0xbe997082	-0.2996865
233	0x3bb639c9	0.0055610877
234	0x3ab8c5f7	0.0014097084
235	0x3e0830fd	0.13299938
236	0x3d439891	0.04775292
237	0xbcd80db5	-0.026373724
238	0xbebbad1f	-0.36655518
239	0x3d374eb2	0.044752784
240	0xbd9b25eb	-0.07575592
241	0x3d52c409	0.051456485
242	0x3e15de52	0.1463559
243	0x3d2aaccc	0.0416687
244	0x3dc26d2f	0.09493481
245	0x3c287917	0.010282776
246	0xbdc1b499	-0.094582744
247	0x3e4d0413	0.20021085
248	0xbe8cccb5	-0.2749993
249	0xbee92b82	-0.45541006
250	0xbc11db0d	-0.008902323
251	0x3e0df7eb	0.13864104
252	0x3df698d2	0.12040867
253	0xbd83eeaf	-0.0644201
254	0xbdebde1a	-0.11516972
255	0x3cc71a02	0.024304394

fc.layers.layer_1.bias f4 [24]
0	0xbc6d0656	-0.014466843
1	0xbe084b3c	-0.1330995
2	0xbd6d818f	-0.057984885
3	0xbd3d8b25	-0.046275277
4	0x3ca2a3ad	0.019853437
5	0xbd91011e	-0.07080291
6	0x3de5ef2c	0.11227259
7	0x3e7f0553	0.24904375
8	0xbdce42e7	-0.10071354
9	0x3de9722c	0.1139873
10	0xbd905628	-0.07047683
11	0xbc89f50a	-0.016840477
12	0xbd258f35	-0.040419776
13	0xbd8f7ee2	-0.07006623
14	0x3deea0f0	0.1165179
15	0x3e633129	0.22186722
16	0xbd457ba4	-0.048213616
17	0xbde8e044	-0.113709
18	0x3e10d649	0.14144243
19	0xbe25f88d	-0.16208096
20	0x3d214f8e	0.03938251
21	0x3d5b5d8c	0.05355601
22	0x3d8a92aa	0.06766255
23	0x3cd8349e	0.026392277

fc.layers.layer_2.weight f4 [24, 24]
0	0xbed92405	-0.42410293
1	0x3f007c71	0.5018988
2	0x3e020c5b	0.12700026
3	0x3e830904	0.25592816
4	0xbf17672b	-0.59141797
5	0xbf43d3f2	-0.7649528
6	0x3c8c353e	0.017115232
7	0x3fcdedac	1.6088157
8	0x3e13d2ab	0.14435832
9	0xbfcf55ab	-1.6198019
10	0x3a011229	0.00049236655
11	0xbe67b0c4	-0.22626024
12	0xbed31cf7	-0.41233036
13	0xbdc4741a	-0.09592457
14	0xbd8319ca	-0.06401403
15	0x3d97807f	0.073975556
16	0xbe202b0b	-0.1564142
17	0xbf7800c4	-0.9687617
18	0x3f0b4172	0.54396737
19	0x3eb66a5c	0.3562802
20	0xbc979a37	-0.018506153
21	0xbe763b7c	-0.24046129
22	0xbed4cc2d	-0.41562024
23	0x3f28b0c0	0.658947
24	0xbeec718e	-0.46180385
25	0xbe53edbd	-0.20696159
26	0xbe83d41d	-0.25747767
27	0xbd9042a6	-0.07043962
28	0xbe9733e8	-0.2953179
29	0xbde707d1	-0.11280788
30	0x3c358626	0.011079347
31	0x3f8fb936	1.1228397
32	0xbdbfac50	-0.09359038
33	0xbe5a4058	-0.21313608
34	0x3eb554f1	0.35416368
35	0xbdeadbc6	-0.114677
36	0xbea8fa8f	-0.3300366
37	0xbe27155d	-0.16316743
38	0xbe3bb566	-0.18330917
39	0x3e154a26	0.14579067
40	0x3a92a107	0.0011186906
41	0xbf38b83f	-0.7215614
42	0x3e6db5a3	0.2321382
43	0x3e30b846	0.17257795
44	0x3f8573db	1.0425981
45	0xbe40bbbc	-0.18821615
46	0x3e8a501e	0.2701425
47	0x3e63d8cf	0.22250675
48	0xbe38f711	-0.18062998
49	0x3e1d4665	0.15358885
50	0x3ea2e032	0.31811672
51	0x3e6df1ef	0.23236822
52	0xbeeed7a8	-0.46648908
53	0xbed8e3be	-0.42361253
54	0x3d691d7a	0.056912877
55	0x3e935093	0.2877241
56	0x3deb01aa	0.11474927
57	0xbf9f2813	-1.2434105
58	0xbec36ffa	-0.3817137
59	0xbe893d7d	-0.26804724
60	0xbe3741ef	-0.17896245
61	0xbe0891d9	-0.13336886
62	0x3cf940c8	0.030426398
63	0xbe9e9895	-0.30975786
64	0x3e6752ee	0.22590229
65	0xbedac7ed	-0.42730656
66	0x3dc5a731	0.0965103
67	0x3e55878b	0.20852487
68	0xbf8f6730	-1.1203365
69	0x3e14303a	0.14471522
70	0xbed209cc	-0.410231
71	0x3ea3cb8f	0.3199124
72	0x3ec7abcf	0.38998267
73	0x3e5e6505	0.21718223
74	0x3f0d4590	0.5518427
75	0xbe07456e	-0.13210079
76	0x3f56ff63	0.8398344
77	0x3ec53870	0.3851962
78	0xbc41b80d	-0.011823666
79	0xbfb03df8	-1.3768911
80	0x3c08f160	0.00835833
81	0x3f35c40f	0.71002287
82	0xbc8cdaa7	-0.017194105
83	0xbd2a8e17	-0.041639414
84	0x3cbfe157	0.02342288
85	0x3f2031a4	0.62575746
86	0xbd851e0e	-0.06499873
87	0x3dd01684	0.101605445
88	0xbe87fab9	-0.26558474
89	0x3ef77986	0.48334903
90	0xbea00c09	-0.31259182
91	0xbf3003d1	-0.68755823
92	0xbfa4d761	-1.2878228
93	0x3e086812	0.1332095
94	0xbde9df33	-0.11419525
95	0xbecf1131	-0.40442804
96	0xbddd5f68	-0.10809213
97	0xbd9aace5	-0.07552508
98	0x3e177f09	0.14794554
99	0xbdb0efb6	-0.08639471
100	0xbe89983b	-0.26873955
101	0xbe053c90	-0.13011384
102	0x3ea57e94	0.32323134
103	0x3e29b4c7	0.16572867
104	0x3e582ce2	0.21110871
105	0xbeca4c71	-0.39511445
106	0x3e621544	0.22078425
107	0x3da771a7	0.08175974
108	0x3de02dc0	0.10946226
109	0x3bacb49d	0.005270554
110	0x3e0a9413	0.13533048
111	0xbe6f740d	-0.23384114
112	0xbe887f15	-0.26659456
113	0xbe24efa7	-0.16107045
114	0x3dc0aa46	0.09407477
115	0x3e1937bf	0.14962672
116	0xbf02b5d1	-0.5105868
117	0xbe407d04	-0.1879769
118	0x3d8510fc	0.0649738
119	0x3f012cab	0.5045878
120	0x3e4ecf52	0.20196274
121	0xbe0f23d4	-0.13978511
122	0x3d0e289e	0.034706704
123	0xbdb57318	-0.08859843
124	0xbd327a5d	-0.043573726
125	0x3e06f0a5	0.13177736
126	0x3e0b419f	0.13599251
127	0x3e9565c0	0.29179192
128	0x3e20a726	0.15688762
129	0xbda78ed4	-0.08181539
130	0xbdf9ff81	-0.12206937
131	0x3c11f222	0.008907827
132	0xbe1ff862	-0.15622094
133	0x3c9773fc	0.018487923
134	0x3b9eeb0f	0.0048497985
135	0x3e4e053b	0.20119183
136	0xbe50628e	-0.20350096
137	0xbee1a4db	-0.44071087
138	0xbdefba33	-0.117054366
139	0x3cb429b4	0.021992542
140	0xbed05aed	-0.4069437
141	0x3e5f480b	0.21804826
142	0x3e654c3b	0.22392361
143	0x3df79f48	0.12090927
144	0xbec0c6f8	-0.376518
145	0xbe043004	-0.12908942
146	0xbecdce7a	-0.40196592
147	0xbe43cff7	-0.19122301
148	0xbf325e83	-0.69675463
149	0xbebe0b32	-0.37117916
150	0x3c9fc701	0.019504072
151	0x3ff253c1	1.893181
152	0x3dac6a4f	0.08418714
153	0x3e90dd10	0.28293657
154	0xbeac2c39	-0.3362749
155	0xbdefd1ae	-0.11709915
156	0xbdafd7fa	-0.08586116
157	0xbda00b71	-0.07814682
158	0xbdcf6f59	-0.1012866
159	0x3e9835a2	0.2972842
160	0x3e0723ca	0.13197246
161	0xbfe9ad59	-1.8256027
162	0xbda3a307	-0.079900794
163	0x3edfb17f	0.43690106
164	0x3ebca4e8	0.36844563
165	0x3e1ce6cf	0.15322421
166	0x3f267da0	0.6503544
167	0x3f1eabc2	0.6198083
168	0x3d03ca09	0.032175098
169	0xbe4e3358	-0.20136774
170	0xbdeed771	-0.11662186
171	0x3e08532f	0.13312982
172	0x3e0e1552	0.1387532
173	0x3dcf9460	0.10135722
174	0x3e0e62a2	0.13904813
175	0x3c8f6d7f	0.017508266
176	0x3d130a66	0.03589859
177	0x3e5a482c	0.21316594
178	0x3e3551a0	0.17706919
179	0x3dc3b66d	0.09556279
180	0x3c71c955	0.014757474
181	0x3d768153	0.060181927
182	0x3e88e033	0.2673355
183	0xbe106e41	-0.14104559
184	0xbe752c18	-0.23942602
185	0xbe20be09	-0.15697493
186	0x3e7754dc	0.24153465
187	0xbea8db4e	-0.32979816
188	0xbd611b27	-0.054957535
189	0x3d0bfdc3	0.034177553
190	0xbcf9a493	-0.030473983
191	0x3c99842a	0.018739779
192	0x3be98234	0.007126117
193	0x3e2b6258	0.16736734
194	0x3dfca4e4	0.12336138
195	0x3d900d36	0.0703377
196	0xbd79b911	-0.06096751
197	0xbd8714a9	-0.065957375
198	0xbdc9f821	-0.0986178
199	0xbeabe753	-0.33574924
200	0xbd3afcd7	-0.045651283
201	0xbd37ad16	-0.044842802
202	0x3d98242d	0.07428775
203	0x3e017eaa	0.12645975
204	0x3bf2737e	0.0073990216
205	0x3e30528a	0.17218986
206	0xbe87dfe9	-0.26538017
207	0xbe9c5971	-0.30536988
208	0xbdc3ffd0	-0.09570277
209	0x3edc1feb	0.429931
210	0xbe2910d1	-0.16510321
211	0x3f070e44	0.5275614
212	0xbda8ece0	-0.08248305
213	0x3c2ada6a	0.0104280505
214	0x3da5eecd	0.08102188
215	0xbd24756f	-0.040151056
216	0xbc676b1e	-0.01412466
217	0x3df7c224	0.12097576
218	0xbcb225ec	-0.021746598
219	0xbd9c9f03	-0.076475166
220	0x3dbdfb76	0.09276478
221	0x3db183df	0.086677305
222	0xbe7763e7	-0.24159203
223	0x3e0ec95c	0.13944
224	0xbe82e8e1	-0.25568298
225	0xbe6323c1	-0.22181608
226	0xbe707eb0	-0.23485827
227	0xbd9ae607	-0.075634055
228	0x3e203b5c	0.15647644
229	0xbdd3c77d	-0.10340784
230	0x3e019397	0.12653957
231	0xbdd3786a	-0.103257015
232	0x3c823890	0.015896112
233	0x3d066984	0.03281547
234	0x3de9c325	0.11414174
235	0xbe89663b	-0.26835808
236	0xbe272fae	-0.16326782
237	0xbe77aa23	-0.24185996
238	0xbd95bbf4	-0.0731124
239	0xbd81176d	-0.06303296
240	0x3ece076b	0.40240034
241	0xbd9d72d4	-0.07687917
242	0x3e40f697	0.18844067
243	0x3e80230a	0.25026733
244	0x3eb07aee	0.34468788
245	0x3e93e6aa	0.2888692
246	0x3ec1a769	0.37823036
247	0xbe876746	-0.2644598
248	0xbe38e9d1	-0.18057944
249	0x3ee53766	0.44768828
250	0xbd55b397	-0.052173223
251	0xbdfbe5e0	-0.122997046
252	0x3d2064fe	0.039158814
253	0x3d804f2c	0.06265101
254	0xbd15a4d0	-0.03653413
255	0x3e6e219e	0.23255011

fc.layers.layer_2.bias f4 [24]
0	0x3dedcf47	0.11611801
1	0x3d6b1f9f	0.057403203
2	0x3cd256d7	0.025676174
3	0x3d65bf01	0.05609036
4	0x3dd2774f	0.102766626
5	0xbe12c3a7	-0.14332448
6	0xbd1f6728	-0.038916737
7	0x3db0d3e6	0.086341664
8	0x3de468b1	0.11152781
9	0xbe00f031	-0.12591626
10	0xbd0653e2	-0.03279484
11	0xbbbf30ab	-0.005834659
12	0x3e075394	0.13215476
13	0x3d82e7c6	0.063918635
14	0x3df82525	0.1211646
15	0xbcda0c8d	-0.026617313
16	0xbd38a9bf	-0.045083757
17	0x3d02a299	0.031893346
18	0xbcaddeb2	-0.021224353
19	0x3dd6829c	0.104741305
20	0x3d16dd1b	0.036831956
21	0xbc3ae8f0	-0.011408076
22	0x3d7ecebe	0.062208883
23	0x3d3a7bb9	0.045528147

fc.layers.layer_3.weight f4 [24, 24]
0	0x3c2e3bcc	0.010634374
1	0x3dd688a6	0.10475282
2	0x3df394a8	0.11893588
3	0x3cce9cd2	0.025221262
4	0xbd918a07	-0.07106405
5	0xbdb1275a	-0.08650084
6	0x3c9cd26b	0.019143304
7	0x3d5e32e1	0.05424774
8	0xbd818725	-0.06324605
9	0xbdd13c8a	-0.10216625
10	0x3d2fe950	0.042947114
11	0x3d8baccc	0.06820068
12	0x3dbc8144	0.09204343
13	0x3e0ca2f4	0.13734037
14	0xbc183c1a	-0.009291673
15	0x3e2f18a5	0.17099245
16	0xbd94a617	-0.072582416
17	0x3d44ee9c	0.048079118
18	0xbbac03de	-0.0052494844
19	0xbdf11d50	-0.11773169
20	0xbd84be1e	-0.064815745
21	0xbd110cce	-0.035412602
22	0x3dc3805e	0.095459685
23	0x3e1a9335	0.15095218
24	0x3dbb93c1	0.09159041
25	0x3ba6eb00	0.005093932
26	0x3e0556a0	0.13021326
27	0x3cad33c2	0.021142844
28	0x3e3f8ee0	0.18706846
29	0x3e03394b	0.12814824
30	0xbd9ddad0	-0.07707751
31	0xbd117acb	-0.035517495
32	0x3dd48f9d	0.103789546
33	0x3e93dde8	0.2888024
34	0xbd8c584f	-0.06852781
35	0x3da16434	0.0788044
36	0x3c7a33ef	0.015271171
37	0x3d7de0fa	0.061982132
38	0x3e4e6505	0.20155723
39	0xbe45e5f8	-0.19326007
40	0x3d7d6bad	0.061870266
41	0x3cd6845b	0.026186159
42	0xbe63b9b5	-0.2223881
43	0x3e001755	0.125089
44	0x3e0173ed	0.12641878
45	0xbe3a1cb8	-0.18175018
46	0xbe568312	-0.20948437
47	0xbe52caf6	-0.20585236
48	0x3d395d6e	0.045255117
49	0xbd19b90a	-0.037529983
50	0x3ae78885	0.0017664587
51	0xbd40973c	-0.04701923
52	0x3c504373	0.012711394
53	0x3d6bd985	0.05758049
54	0x3be93afd	0.0071176277
55	0xbe3ab03c	-0.1823129
56	0xbdd73d02	-0.10509683
57	0x3df6dfe9	0.12054426
58	0xbd5acf07	-0.053420093
59	0x3da95b9e	0.08269428
60	0xbdfe3301	-0.12412072
61	0xbc555430	-0.01302056
62	0x3e0ce55a	0.13759366
63	0xbdda8ef3	-0.10671797
64	0xbcd0ba21	-0.025479378
65	0xbca5b449	-0.020227568
66	0xbddaba40	-0.106800556
67	0x3cbd2354	0.023088135
68	0x3db9cc14	0.09072128
69	0xbd3960e5	-0.04525842
70	0xbbd1f7ee	-0.0064077294
71	0xbca117be	-0.019664641
72	0xbcc7e9f4	-0.02440355
73	0x3d30faf9	0.043208096
74	0x3c910ce7	0.017706348
75	0x3e7ac5af	0.24489473
76	0x3de22f27	0.1104415
77	0x3cbefc89	0.023313778
78	0x3b118043	0.0022201694
79	0x3df2283b	0.118240796
80	0x3e65eeaa	0.22454324
81	0x3da72821	0.08161951
82	0xbe14155f	-0.14461277
83	0xbe2a455c	-0.16628021
84	0xbddf7f34	-0.10912934
85	0x3dc17063	0.09445264
86	0x3d644fe3	0.05574025
87	0xbd18a5c7	-0.037267473
88	0x3d70673f	0.058692213
89	0x3c1f6fae	0.009731216
90	0x3c771bf8	0.015082352
91	0x3e53bef1	0.20678307
92	0xbe3d9b36	-0.1851624
93	0x3cdc8623	0.02691943
94	0xbe8ce6b7	-0.2751977
95	0xbe00e4a7	-0.12587224
96	0xbbf4daca	-0.0074723708
97	0xbccf97c7	-0.025340928
98	0x3d28e71c	0.041236028
99	0x3d6b8260	0.057497382
100	0x3e53a10b	0.20666902
101	0xbe83d66a	-0.25749522
102	0xbeb6e1be	-0.35719103
103	0xbd62bcc7	-0.055355813
104	0x3e55badf	0.20872067
105	0x3d56a227	0.052400734
106	0xbe08ccfb	-0.13359444
107	0xbdb7272d	-0.08943019
108	0xbe1f1d17	-0.1553844
109	0xbb4e086c	-0.0031438125
110	0xbdef2ed1	-0.116788514
111	0xbd0840a3	-0.033264767
112	0xbe0853b1	-0.13313176
113	0xbec0c46a	-0.37649852
114	0xbe0f23cb	-0.13978498
115	0x3b8318eb	0.004000773
116	0x3dd702d1	0.10498584
117	0x3e295869	0.16537632
118	0x3d88ae84	0.06673911
119	0x3e01aa1f	0.12662552
120	0x3c26dee9	0.010184982
121	0x3cb55a1d	0.022137696
122	0xbcf1579f	-0.029460726
123	0xbc500927	-0.012697495
124	0xbc16a20a	-0.009193907
125	0xbab24b89	-0.0013602833
126	0xbc2e69d7	-0.010645351
127	0xbdccd4e8	-0.10001546
128	0x3c3513f3	0.01105212
129	0xbd3aee2a	-0.045637287
130	0xbc00e768	-0.007867672
131	0xbbd5e156	-0.0065271063
132	0xbd57f55e	-0.052724235
133	0x3c6293c5	0.013829176
134	0x3d6de8b5	0.058083255
135	0xbda995cb	-0.08280524
136	0xbbb62fbf	-0.005559891
137	0xbc0999b8	-0.008398466
138	0x3c838c3b	0.016058078
139	0xbd1bd1e5	-0.038041968
140	0xbd905ab2	-0.07048549
141	0x3d3584a5	0.044315953
142	0x3d1f6cc2	0.03892208
143	0xbd37f2c0	-0.04490924
144	0x3dcbc0b4	0.099488646
145	0x3db7c131	0.08972395
146	0xbd3075f5	-0.043081243
147	0x3d9fb451	0.077980645
148	0xbcc05d7f	-0.023482082
149	0x3d286eac	0.04112117
150	0xbc16843e	-0.009186802
151	0x3d590930	0.052987278
152	0x3de9480f	0.11390697
153	0x3da65005	0.08120731
154	0xbd08c7f3	-0.03339381
155	0x3e07f8ad	0.13278456
156	0xbeb14465	-0.34622493
157	0x3c9203b1	0.017824026
158	0x3e454e37	0.19268118
159	0xbc785f7b	-0.015159483
160	0x3dc4fdd4	0.096187264
161	0x3d79e3bd	0.061008204
162	0xbcce2f52	-0.025169048
163	0xbd3fadf6	-0.04679676
164	0x3e168d55	0.14702351
165	0xbdd5a8bc	-0.10432574
166	0xbd8d82ff	-0.06909751
167	0x3d83a576	0.064280435
168	0xbd083d3c	-0.033261523
169	0xbce0694d	-0.027393961
170	0xbdb89afb	-0.09013935
171	0xbe2c0bb7	-0.16801344
172	0xbd142003	-0.03616334
173	0x3c8fd74b	0.017558714
174	0xbd0aa859	-0.033851955
175	0xbde6a89f	-0.11262631
176	0xbd24e8da	-0.040261127
177	0xbde0d010	-0.10977185
178	0x3db5b158	0.08871716
179	0xbd85d7c0	-0.06535292
180	0x3cf8aa03	0.030354505
181	0xbe6edc32	-0.23326185
182	0xbd8fb83b	-0.07017561
183	0xbd89be55	-0.06725756
184	0x3d90ec83	0.07076361
185	0xbd2faa9b	-0.04288731
186	0x3d1191d8	0.035539478
187	0xbdb4d7d6	-0.0883023
188	0x3dd2f7d2	0.10301174
189	0xbcf7656b	-0.030199727
190	0x3e372169	0.17883839
191	0xbda2fd81	-0.07958508
192	0xbd76be28	-0.06023994
193	0xbd2ab070	-0.04167217
194	0xbd6d34b9	-0.05791161
195	0xbdf5c090	-0.11999619
196	0xbc9a02bb	-0.01880013
197	0xbe0c52a7	-0.13703404
198	0x3d8774a6	0.06614046
199	0xbe191a68	-0.1495148
200	0xbe417d59	-0.18895473
201	0xbcebb23b	-0.02877151
202	0xbe3791e9	-0.17926754
203	0xbe1375e4	-0.1440044
204	0xbdcd4b35	-0.1002411
205	0xbe0bc1d4	-0.13648158
206	0xbd98c4ff	-0.07459449
207	0x3e8d580d	0.2760624
208	0x3c8197f9	0.015819537
209	0xbcdb3d33	-0.02676258
210	0x3d30c4a3	0.043156277
211	0xbdb3ad6d	-0.08773313
212	0xbda532cb	-0.080663286
213	0x3e201a0d	0.15634938
214	0x3e2d91f5	0.1695021
215	0xbd01473f	-0.031562086
216	0x3e19e76f	0.15029691
217	0xbdd054bf	-0.10172414
218	0x3e6366ce	0.22207186
219	0x3dbbb0f1	0.09164608
220	0xbd60f825	-0.05492415
221	0x3e1a833b	0.15089123
222	0xbd93bd2d	-0.07213817
223	0x3d5d5adf	0.05404174
224	0xbe2a3254	-0.16620761
225	0x3d716060	0.0589298
226	0x3df04002	0.117309585
227	0xbcc49189	-0.023995178
228	0xbe2b5628	-0.16732085
229	0xbe0e023b	-0.13868038
230	0xbd9c133c	-0.07620856
231	0x3d351304	0.044207588
232	0xbd8e5900	-0.06950569
233	0xbe00e05d	-0.12585588
234	0x3e0a00c6	0.13476858
235	0xbe14741b	-0.14497416
236	0xbe1bfe03	-0.15233617
237	0x3c9e3b83	0.019315487
238	0xbe37e4c9	-0.17958368
239	0x3dfcccdb	0.123437606
240	0x3d2b2109	0.04177955
241	0x3b64972d	0.0034880147
242	0xbd0e024d	-0.034670163
243	0xbdb3b8b6	-0.08775465
244	0xbdc2dad0	-0.095143914
245	0x3dd9d321	0.10635973
246	0xbe08c1e3	-0.13355212
247	0xbe002f84	-0.12518126
248	0xbe0959a8	-0.13413107
249	0x3d1e663b	0.038671713
250	0xbd9ed42b	-0.077553116
251	0x3ca7f938	0.020504579
252	0xbd8f68ad	-0.07002387
253	0xbe0b718e	-0.13617536
254	0x3dd30ad3	0.10304799
255	0xbe0d13de	-0.1377711

fc.layers.layer_3.bias f4 [24]
0	0xbd65ee32	-0.056135364
1	0x3b792104	0.0038014064
2	0x3c0b5687	0.008504516
3	0x3d269de7	0.04067793
4	0xbd7ce38c	-0.061740443
5	0xbb85c0fd	-0.004081844
6	0x3c455f46	0.012046641
7	0x3b6de811	0.0036301652
8	0xbca1328c	-0.019677423
9	0x3e1df0f8	0.15423954
10	0x3c8f07f6	0.01745985
11	0xbc602963	-0.013681742
12	0xbd8241b7	-0.0636019
13	0x3e40fcbd	0.18846412
14	0x3e3bc33f	0.18336199
15	0xbe3450d2	-0.17608956
16	0x3e266f73	0.16253452
17	0x3cb0f9e0	0.021603525
18	0x3db9a96f	0.0906552
19	0xbca30104	-0.019897945
20	0x3e3d512f	0.18488
21	0x3dfe93b9	0.124305196
22	0xbe4ba824	-0.1988836
23	0x3e03610f	0.12829994

fc.layers.layer_4.weight f4 [2, 24]
0	0xba923747	-0.001115539
1	0x3b1542c0	0.0022775382
2	0x397a2d6f	0.00023858783
3	0x3a1e835d	0.00060467963
4	0x3da534a9	0.08066685
5	0xbaddfc43	-0.0016936142
6	0xb967e102	-0.00022113699
7	0xba624fb0	-0.000863309
8	0xbb87046b	-0.0041203997
9	0xbdaf068c	-0.085461706
10	0x3ab1f2c9	0.0013576384
11	0xb94f8038	-0.00019788824
12	0xba201bc5	-0.00061076536
13	0xbe7c51c2	-0.24640563
14	0x3b0bbc32	0.002132189
15	0x3da7ba11	0.08189786
16	0x3e536ff8	0.20648181
17	0x3d4404e5	0.04785623
18	0xbe18d9e6	-0.14926872
19	0x3976ad4c	0.00023524946
20	0xbe4048a7	-0.18777715
21	0x3d72768f	0.059195098
22	0xbe5908bd	-0.2119474
23	0x3d2be186	0.041963123
24	0x39b26522	0.00034026155
25	0xb8f2c723	-0.00011576551
26	0x3806aba9	3.210796e-05
27	0x377fe902	1.5253436e-05
28	0xbda8666d	-0.08222661
29	0x3a7c69ae	0.00096287846
30	0x3a04d234	0.0005066723
31	0x39e3d7de	0.00043457648
32	0xba1a9c22	-0.00058978994
33	0xbd84e401	-0.06488801
34	0x38d90788	0.00010348769
35	0x38b65adc	8.69536e-05
36	0xb9ccca74	-0.0003906075
37	0x3dcc5be6	0.09978466
38	0xbddafa56	-0.10692279
39	0xbdc11c0e	-0.09429179
40	0x3e00c498	0.12574995
41	0x3d5ca43d	0.053867567
42	0xbc49700a	-0.012294779
43	0xba7633c2	-0.0009391868
44	0xbdccc4da	-0.09998484
45	0xbbcbea70	-0.0062230155
46	0x3c7462b6	0.014916113
47	0x3dc69533	0.09696426

fc.layers.layer_4.bias f4 [2]
0	0x3c262e53	0.0101428805
1	0xbcc6a11b	-0.024246743
