results/training_train_results/best_model_185.pt (torch, 6907 bytes, 12 tensors)

std f4 [1, 2]
0	0x3f800000	1.0
1	0x3f800000	1.0

mean f4 [1, 2]
0	0x00000000	0.0
1	0x00000000	0.0

fc.layers.layer_0.weight f4 [8, 4]
0	0xbdde613e	-0.10858391
1	0x404088ab	3.0083416
2	0xbd2c2bcc	-0.042033955
3	0xc0954248	-4.664341
4	0xbf3a268d	-0.72715074
5	0x3faf840e	1.3712175
6	0x3e33c2e1	0.17554809
7	0xbe91e9f5	-0.28498808
8	0x3dd039be	0.101672634
9	0xbdd5770f	-0.10423099
10	0x3b60ca60	0.0034300312
11	0xc02b0d4d	-2.6726868
12	0x3ead229e	0.33815473
13	0xbf208540	-0.62703323
14	0x3de6ad6f	0.112635486
15	0x3f76daa7	0.96427387
16	0xbe080dcf	-0.13286518
17	0xbffd59dc	-1.9793048
18	0xbd8c44ea	-0.06849082
19	0xbfcef6ae	-1.6169031
20	0xbdaf531e	-0.08560775
21	0xbe9cca21	-0.30622962
22	0xbe157ff4	-0.14599591
23	0xc09fde1d	-4.9958634
24	0xbe9af74d	-0.302668
25	0xc059164c	-3.391986
26	0x3e245451	0.16047789
27	0xc03416ef	-2.8138998
28	0x3e9df6d0	0.30852365
29	0xbffa38dd	-1.9548603
30	0xbb0da635	-0.002161396
31	0x40cf5d92	6.480172

fc.layers.layer_0.bias f4 [8]
0	0x3b09a72c	0.0021004183
1	0xbea82ce5	-0.32846752
2	0xbdf2469f	-0.11829876
3	0xbebbf392	-0.36709267
4	0x3ccd197f	0.025036572
5	0x3eac6d61	0.336772
6	0xbeda8690	-0.42680788
7	0xbe21553d	-0.15755172

fc.layers.layer_1.weight f4 [8, 8]
0	0xbeaaac8d	-0.3333477
1	0x3e3b3ce6	0.1828495
2	0x3eff9d4c	0.49924695
3	0xbe4b923a	-0.1988
4	0xbe8609c3	-0.26179323
5	0x3dd8fc89	0.10595042
6	0xbeb11bd1	-0.34591535
7	0xbeff7a03	-0.49897775
8	0x3e2a64b7	0.16639982
9	0x3e71211b	0.23547785
10	0x3df00897	0.117203884
11	0xbd8049e8	-0.062640965
12	0x3ecdc55e	0.40189642
13	0xbe0ef6b3	-0.13961296
14	0x3df70c2e	0.1206287
15	0xbe85ae73	-0.26109657
16	0x3debd694	0.11515537
17	0x3e6c5855	0.23080571
18	0xbec449fa	-0.3833769
19	0xbe954410	-0.2915349
20	0xbe08f193	-0.13373403
21	0x3dbc10ff	0.09182929
22	0xbdaa3be1	-0.08312202
23	0xbd999f68	-0.075011075
24	0x3ea5ce2e	0.32383865
25	0x3ca205e2	0.019778196
26	0x3ec03c39	0.37545946
27	0xbdcc7af6	-0.099843904
28	0xbe1f9508	-0.15584195
29	0xbdb49ff8	-0.08819574
30	0x3e2610ff	0.16217421
31	0xbee5b112	-0.44861656
32	0x3d97ad5f	0.07406115
33	0xbdb9af1a	-0.09066601
34	0x3ebe83d1	0.37209943
35	0xbe294d5a	-0.16533414
36	0xbe909aa4	-0.2824298
37	0xbe1d697a	-0.15372267
38	0xbdf30236	-0.11865656
39	0x3ebd2c68	0.36947942
40	0x3e8277ad	0.2548193
41	0xbd818636	-0.06324427
42	0x3f803ea7	1.001912
43	0x3e81d63b	0.25358757
44	0xbe802a84	-0.25032437
45	0xbe9606c8	-0.2930205
46	0xbea621d2	-0.32447678
47	0xbe6a3650	-0.22872281
48	0x3d62792f	0.05529135
49	0x3e99becd	0.30028382
50	0x3eb7a371	0.35866883
51	0x3e907e13	0.28221187
52	0x3d123aba	0.035700537
53	0xbd888912	-0.06666769
54	0xbed80931	-0.42194512
55	0xbe600a28	-0.21878874
56	0xbe24b9f7	-0.16086565
57	0xbe04426e	-0.12915966
58	0xbd68326c	-0.05668871
59	0x3e92a166	0.28638762
60	0x3d811b2f	0.06304013
61	0xbcf32ee2	-0.029685441
62	0x3ec4fea9	0.3847554
63	0xbea386fe	-0.31938928

fc.layers.layer_1.bias f4 [8]
0	0xbe0e8afe	-0.13920209
1	0xbdbe228f	-0.09283935
2	0xbc2998e0	-0.01035139
3	0xbe9f367a	-0.3109625
4	0x3df98e76	0.121853754
5	0x3d679f6f	0.056548532
6	0xbd463616	-0.048391424
7	0x3dec6a98	0.11543769

fc.layers.layer_2.weight f4 [8, 8]
0	0x3e77ee80	0.24212074
1	0x3e55c756	0.20876822
2	0x3e7bf2da	0.2460436
3	0xbe815c00	-0.25265503
4	0xb9cb18d1	-0.00038737667
5	0x3e29a904	0.1656838
6	0xbbce8233	-0.006302142
7	0xbec45910	-0.383492
8	0x3dd2dd9d	0.10296176
9	0x3d3cb301	0.04606915
10	0x3cb0933d	0.021554584
11	0x3e42c62a	0.19020906
12	0xbefeb5ab	-0.49747977
13	0xbe8fdef4	-0.28099787
14	0xbc726b91	-0.014796154
15	0xbe72f993	-0.23728018
16	0x3d90cc32	0.07070197
17	0x3e266fc8	0.16253579
18	0x3e9b603c	0.30346859
19	0x3ecd30a4	0.40076172
20	0x3d89169a	0.06693764
21	0x3e018ff3	0.12652569
22	0x3e05ec9d	0.13078542
23	0xbd80c07d	-0.06286714
24	0x3eca3f5a	0.39501458
25	0xbe921418	-0.28530955
26	0xbe8c1344	-0.27358449
27	0x3e7d7249	0.24750628
28	0x3ea695ee	0.32536262
29	0x3e885825	0.2662975
30	0xbec0f335	-0.37685552
31	0xbe09dd5f	-0.13463353
32	0x3db4c142	0.088259235
33	0x3e88ca1f	0.26716706
34	0xbe69f6b1	-0.22848012
35	0x3e8e808a	0.27832443
36	0x3e80872c	0.25103128
37	0x3c3711a5	0.01117364
38	0xbe265cb4	-0.16246301
39	0xbdbbcd06	-0.091699645
40	0x3ee2b708	0.44280267
41	0x3e8b0b70	0.27157164
42	0x3e84b74d	0.25921097
43	0x3e6ce93c	0.23135847
44	0xbe43e56b	-0.19130485
45	0x3e85927e	0.26088327
46	0x3e87cc20	0.26522923
47	0xbe0c2df1	-0.136894
48	0x3e297b4b	0.16550939
49	0xbd935a16	-0.07194917
50	0x3e923adb	0.28560528
51	0x3e9a3e80	0.3012581
52	0x3e853436	0.26016396
53	0xbea7cacc	-0.3277191
54	0xbec4c241	-0.38429454
55	0xbe87dac7	-0.265341
56	0x3eb972d8	0.3622043
57	0x3dc681db	0.09692737
58	0xbd6103ce	-0.05493527
59	0xbdce032d	-0.100591995
60	0xbebc8062	-0.36816698
61	0x3dccba44	0.09996465
62	0x3e2a0a6c	0.16605538
63	0xbd17f96a	-0.037103094

fc.layers.layer_2.bias f4 [8]
0	0xbe9e9063	-0.30969533
1	0x3e75dbbd	0.24009605
2	0x3e1d9f2a	0.15392748
3	0x3e667ac5	0.2250777
4	0x3e8eac36	0.27865762
5	0x3e0034d3	0.12520151
6	0x3eb0a6d6	0.34502286
7	0xbd1266bf	-0.035742518

fc.layers.layer_3.weight f4 [8, 8]
0	0x3e53d16d	0.20685358
1	0xbe5df017	-0.21673618
2	0x3d9547e3	0.07289102
3	0x3e2a2c3e	0.1661844
4	0xbe64914b	-0.2232105
5	0xbecca79c	-0.39971626
6	0xbe3d4388	-0.18482792
7	0xbe0abc73	-0.1354845
8	0xbea48662	-0.32133776
9	0x3dd7cb1a	0.105367854
10	0xbdc069ef	-0.09395205
11	0x3dfe0d44	0.12404874
12	0xbda80eb5	-0.0820593
13	0x3c720694	0.014772076
14	0x3e31d5e1	0.17366745
15	0xbe7bebf5	-0.24601729
16	0xbea2c9ea	-0.31794673
17	0xbe903bfe	-0.2817077
18	0x3e3f0804	0.18655401
19	0x3ea2c6ae	0.31792206
20	0x3e1613f4	0.14656049
21	0xbd88f40f	-0.066871755
22	0x3ebda8a7	0.37042734
23	0xbe6c0ce5	-0.23051794
24	0xbe02241d	-0.12709089
25	0x3dd5ddfe	0.10442732
26	0x3e92de64	0.28685296
27	0x3db5a0db	0.08868571
28	0x3ea27c73	0.31735572
29	0xbe85f73f	-0.26165196
30	0x3bd167dc	0.006390555
31	0xbe3fe9b7	-0.18741499
32	0x3c893402	0.016748432
33	0x3ead6e56	0.33873242
34	0x3ebb333e	0.36562532
35	0x3d0de2c6	0.034640096
36	0x3eac1cbc	0.33615673
37	0x3d61ba97	0.055109587
38	0xbebd0cb8	-0.36923766
39	0x3e1a0cdf	0.15043972
40	0x3e4b2a95	0.19840463
41	0xbd991c96	-0.074761555
42	0x3e7fb311	0.24970652
43	0xbd962d8c	-0.07332906
44	0x3e2fef9c	0.17181247
45	0x3f210a28	0.6290612
46	0xbdf6d2e5	-0.12051944
47	0xbe5330d1	-0.2062409
48	0xbb9287fe	-0.004471778
49	0x3dfc1be8	0.1231001
50	0xbef80dcb	-0.48448023
51	0xbed8a7a4	-0.423154
52	0xbc7d1b15	-0.015448351
53	0xbe9b0b41	-0.30282024
54	0xbe01f2b8	-0.12690246
55	0xbee755ab	-0.45182547
56	0x3e14e9a0	0.14542246
57	0xbe1b1b1f	-0.15147065
58	0x3e83a602	0.2571259
59	0x3e2caa74	0.16861898
60	0x3e1cddca	0.15318981
61	0x3df6bf96	0.12048261
62	0x3ddedc27	0.108818345
63	0x3e066c63	0.13127284

fc.layers.layer_3.bias f4 [8]
0	0x3c4ca60a	0.012490759
1	0xbea8e7b6	-0.3298928
2	0xbe701411	-0.23445155
3	0xbd65dbd8	-0.056117862
4	0xbe0b3d7d	-0.13597675
5	0xbea1f9db	-0.31635937
6	0x3dfe3c08	0.12413794
7	0x3c8e9f1e	0.017409857

fc.layers.layer_4.weight f4 [2, 8]
0	0xbe1eb1e5	-0.15497549
1	0xbe150cea	-0.14555708
2	0xbf4c7dad	-0.79879266
3	0xbd60373e	-0.054740183
4	0x3e92f693	0.28703746
5	0x3edd61be	0.43238634
6	0xbef5f6ff	-0.48040006
7	0x3d13fc4a	0.036129273
8	0xbe0ecb89	-0.1394483
9	0x3e6b6aca	0.22989956
10	0xbe3bef8b	-0.18353097
11	0xbe69de8d	-0.22838803
12	0x3cef36df	0.02920097
13	0xbe9ca783	-0.3059655
14	0x3d33c6e7	0.04389086
15	0xbbf74d5a	-0.007547063

fc.layers.layer_4.bias f4 [2]
0	0x3e2e97aa	0.17050043
1	0xbd80426a	-0.062626675
