results/training_train_results/best_model_98.pt (torch, 6887 bytes, 12 tensors)

std f4 [1, 2]
000000 00 00 80 3f 00 00 80 3f
       1.0 1.0

mean f4 [1, 2]
000000 00 00 00 00 00 00 00 00
       0.0 0.0

fc.layers.layer_0.weight f4 [8, 4]
000000 0f d2 7c be 6b 92 f7 3f af ec 9a bd 49 63 a1 bf
       -0.24689506 1.9341558 -0.07564675 -1.2608424
000010 3f ec 78 3d 94 e6 e8 3f 7e de 0e 3d 8c 2c 84 c0
       0.060772177 1.8195367 0.034880154 -4.130438
000020 d3 69 51 be 1a 4d 9f bd 38 2e 3f 3b b7 36 86 40
       -0.20450525 -0.07778378 0.0029171836 4.194179
000030 b0 35 a1 bf 90 03 22 40 18 2e 2f 3e e7 3d c2 3e
       -1.2594509 2.5314674 0.17107427 0.37937853
000040 94 15 2f 3e 07 bb bd 3f f6 db 42 3e 25 d1 a2 40
       0.17098075 1.4822701 0.19029221 5.0880303
000050 87 d8 4f be c0 c6 42 c0 96 4c 51 3e ba a3 eb bf
       -0.20297442 -3.0433807 0.20439371 -1.840934
000060 c9 8f dc be e1 65 a6 3f 31 34 d0 3b 9a 3f 66 c0
       -0.4307845 1.2999841 0.006353878 -3.597632
000070 02 1c c6 be 30 86 b2 3f e2 9d b0 3d d4 88 20 40
       -0.38693243 1.3947201 0.08623864 2.5083513

fc.layers.layer_0.bias f4 [8]
000000 ee 62 df 3e 22 47 26 3e 24 7a 10 3d 17 ea 85 bf
       0.43630165 0.16238073 0.035272732 -1.0462064
000010 99 5e 04 bf d4 6a 27 bf fc a3 0e be 7d db 06 bf
       -0.51706845 -0.6539738 -0.13929743 -0.5267866

fc.layers.layer_1.weight f4 [8, 8]
000000 16 ca ef bd 79 5b 21 be 43 d0 05 bf 07 6e 7f be
       -0.11708467 -0.1575755 -0.5227091 -0.24944316
000010 fd b8 20 be f2 5a 6e bc 9c e1 2e 3f be ea be be
       -0.15695567 -0.01454805 0.68313 -0.3728847
000020 3f 90 63 3d 05 8e cd 3e 15 80 1c 3e f8 a1 ea 3d
       0.055557486 0.40147415 0.15283234 0.11456674
000030 d8 68 20 3e 28 34 19 3d af af 2f 3f 75 57 88 be
       0.15664995 0.037403256 0.68627447 -0.26629224
000040 b5 aa 12 3e 4c e4 2d be b7 26 aa bd e3 ff d5 bd
       0.14322932 -0.1698162 -0.083081655 -0.10449197
000050 16 0b a2 be 34 33 5b 3e cd 17 36 bd ac f5 66 3e
       -0.31649083 0.21406251 -0.044456292 0.22554654
000060 5b c9 8d bc 29 bd 3b 3e 56 fc 13 bf 62 ae a5 3e
       -0.017307928 0.18333878 -0.5780691 0.32359606
000070 63 ca 7d 3d 8e 0d 6b 3e 64 89 2d bf b3 80 0e be
       0.06196059 0.2295439 -0.67787766 -0.13916282
000080 8c b2 aa be 69 2d c3 bd 6b 5c 9f 3d 65 a9 a3 3e
       -0.33339345 -0.09530146 0.07781299 0.31965175
000090 3a 7a 4e be 90 86 3a be f0 3f f6 3d 70 75 e3 be
       -0.20163813 -0.18215394 0.12023914 -0.44425535
0000a0 e4 eb 01 bf 30 72 17 bf 13 20 28 3f cc 68 8e 3d
       -0.50750566 -0.5915861 0.6567394 0.06953582
0000b0 7f fb 58 be 99 e1 12 3e 35 d2 00 be 2f c7 09 be
       -0.21189688 0.14343871 -0.12580188 -0.13454889
0000c0 47 20 79 3e e8 12 42 3e 48 48 69 3e 91 de 5a be
       0.24328719 0.18952525 0.2278148 -0.21373965
0000d0 cd e6 0a 3e f2 f0 6e be 1e f0 12 3e 4c 8d 49 be
       0.13564606 -0.23334101 0.1434941 -0.19682807
0000e0 8f 06 47 bd 63 65 52 be 41 50 0d bc 5e 32 10 be
       -0.04859024 -0.20546488 -0.008625091 -0.14081714
0000f0 a9 ae 46 be 21 17 bf 3e 06 58 af be 97 ff b7 3a
       -0.19402565 0.37322333 -0.34246844 0.0014037964

fc.layers.layer_1.bias f4 [8]
000000 1b 4d 22 3e 3f 9f 88 3e df 56 b8 3d 47 f2 9b be
       0.15849726 0.26683995 0.09000944 -0.3045828
000010 6a c8 68 be ef 47 a5 bd 00 63 a0 bd aa e1 13 bb
       -0.22732702 -0.08070361 -0.07831383 -0.0022564926

fc.layers.layer_2.weight f4 [8, 8]
000000 a3 b6 1e be 49 4a 85 be 54 09 94 3e 9f 51 98 be
       -0.15499358 -0.26033238 0.28913367 -0.29749772
000010 e1 ea 71 be 88 ad 4c 3e 53 5c 26 3e da 2d d4 bc
       -0.23624755 0.19988072 0.16246156 -0.02590077
000020 5f b7 cc bd bb b0 7d 3e d6 16 44 bc 62 24 3e be
       -0.09995913 0.24774449 -0.011968335 -0.18568566
000030 cc 60 b9 3e 46 69 a9 bd 14 8b c5 3e 6e 08 5d 3d
       0.36206663 -0.082720324 0.3858267 0.053963117
000040 42 96 91 3e b2 47 e3 bd b0 35 9b be fe 77 2b 3e
       0.2843495 -0.11097659 -0.30314398 0.16744992
000050 ee fb 4e be 5f 91 83 be b0 4a 86 be 9d 65 24 bf
       -0.20213291 -0.25696847 -0.26228857 -0.6421755
000060 ff 54 22 3d 8c 5c 4b be c1 3f 1d be a3 94 aa be
       0.03963184 -0.19859523 -0.15356351 -0.33316526
000070 ed 4e 03 3e 0e 54 cc 3e db 9a ef bd bb 16 f9 3e
       0.12823077 0.3990788 -0.11699458 0.48650154
000080 ae cd ad be 36 e1 0c be cc 5c e9 3d be 41 f4 3d
       -0.33945984 -0.13757786 0.11394653 0.11926602
000090 55 91 6c be bd ed c6 be 2b 69 ab 3e 08 9a 56 3c
       -0.23102315 -0.38853255 0.33478674 0.013098247
0000a0 6e e7 d6 bd 1f 51 98 3e c6 ab fe 3d e2 89 06 be
       -0.104933605 0.2974939 0.12435107 -0.13138536
0000b0 b7 11 a0 3e 4e 56 80 3e ed 60 05 be 9f b6 f2 3e
       0.31263515 0.25065845 -0.13025256 0.47404954
0000c0 80 88 6d 3e 7e 18 b4 3e 64 91 fb be e2 37 55 3e
       0.23196602 0.35174936 -0.49134362 0.20822099
0000d0 6b 4f 18 3d ea 06 d8 bd ca a2 50 3e 45 94 02 bf
       0.037185114 -0.10548194 0.20374599 -0.5100749
0000e0 0e 85 83 be d1 3f 70 3e 41 79 e9 bd 6e 13 ae 3d
       -0.2568745 0.23461844 -0.114000805 0.084998
0000f0 7b b1 26 be f1 ea 3a bd 0a 55 00 3e d8 46 6b 3e
       -0.16278641 -0.045634214 0.1253244 0.22976243

fc.layers.layer_2.bias f4 [8]
000000 dc 23 24 3e f2 21 24 3e 25 49 83 be 2d a9 81 3e
       0.16029304 0.16028574 -0.25641742 0.25324383
000010 6a f2 a9 bc 09 1f 59 3e 2e 3d ca bd fa 97 94 be
       -0.020745475 0.21203245 -0.0987495 -0.290222

fc.layers.layer_3.weight f4 [8, 8]
000000 f2 80 16 bd ed 4c 74 be 23 7c f3 bd 2f b1 3a 3d
       -0.036744066 -0.2385747 -0.118889116 0.04557913
000010 b0 3e 3c 3e 21 78 86 3e 3f 6d 65 bc 22 94 6a be
       0.18383288 0.26263526 -0.014003097 -0.2290807
000020 6a c5 39 3e 74 5d 44 3e 4d 45 69 be 3c 44 bf be
       0.18141714 0.19176275 -0.22780342 -0.37356746
000030 31 ca 72 be 25 3a 22 be 90 da 74 3f d1 e3 b0 be
       -0.23709942 -0.15842493 0.95646 -0.3454881
000040 fd 11 d3 3d 9c 83 f9 bc 75 fc 0c bd ca 1a 2d 3e
       0.10306165 -0.030458264 -0.03442045 0.1690475
000050 d3 be 41 3e 01 95 19 be 1a 1a 34 bf 20 0e 87 3e
       0.1892045 -0.14998247 -0.7035233 0.26377964
000060 db 68 67 be af 4a 3b be c3 3e 7f 3e 2a a9 f8 be
       -0.22598593 -0.18290208 0.24926285 -0.48566562
000070 31 b7 9f bd dd 2a 80 be 22 02 7e 3f 2f c2 1e bb
       -0.07798613 -0.25032702 0.99222004 -0.002422463
000080 96 94 06 3e 7b fc 4d 3e 31 1c ae 3d 77 a2 06 3e
       0.13142619 0.20115845 0.08501471 0.13147913
000090 28 d3 b0 3e 58 ed e5 3d c5 f1 94 be e9 11 d4 bd
       0.345361 0.1122691 -0.29090706 -0.103549786
0000a0 ed 74 a9 3d 1b 55 ea 3e 8b 21 04 3f e0 5f 80 bb
       0.08274255 0.45768055 0.5161368 -0.003917679
0000b0 c0 86 3f 3e 2c be b7 be 27 bb 81 3f 35 4f 4a be
       0.18703747 -0.35887277 1.0135239 -0.19756778
0000c0 3b 65 aa bc 5f f2 d1 bc fe d2 04 bd 66 34 1e 3e
       -0.020800224 -0.025628267 -0.03242778 0.15449676
0000d0 0f a1 72 3d 2e d7 bf 3e 21 a4 f7 3e 47 f4 9c 3e
       0.05923563 0.37468857 0.48367408 0.3065512
0000e0 75 bc 58 be 3a 20 e5 3d 12 83 13 bd 0d c5 05 be
       -0.2116564 0.11187787 -0.03601367 -0.1306345
0000f0 53 f5 8e 3d e1 20 53 be 4d df 4a be af 9a e4 3d
       0.06980386 -0.20618011 -0.19811745 0.11162316

fc.layers.layer_3.bias f4 [8]
000000 bf 80 39 be 78 f2 9d bd 97 0a 39 3e db ee 81 be
       -0.18115519 -0.07712263 0.18070446 -0.25377545
000010 e9 19 44 3e 14 7b 2c 3e 7c 1b 8f be c0 ae 1b 3d
       0.19150509 0.16843826 -0.27950656 0.03800845

fc.layers.layer_4.weight f4 [2, 8]
000000 bf 64 89 3e 1a 0b 32 3e f7 59 8d be f3 37 78 3e
       0.26834676 0.17387047 -0.276077 0.24240093
000010 2d 03 33 be 3e 23 8b 3e ee 62 c4 bd 82 57 89 bd
       -0.1748168 0.27175325 -0.09589182 -0.06706144
000020 85 4b 8a be 2c ae 87 bc cc c5 1e bd 8f 6c 6b be
       -0.27010742 -0.016562544 -0.038762853 -0.2299063
000030 aa d6 43 be cc fa 32 bd c4 13 50 3e c7 73 bb 3c
       -0.19124857 -0.04369621 0.2032004 0.022882355

fc.layers.layer_4.bias f4 [2]
000000 6e 94 24 3e fa 45 02 bc
       0.16072246 -0.007951254
