results/training_train_results/best_model_437.pt (torch, 33863 bytes, 14 tensors)

std f4 [1, 2]
000000 00 00 80 3f 00 00 80 3f
       1.0 1.0

mean f4 [1, 2]
000000 00 00 00 00 00 00 00 00
       0.0 0.0

dof2.std f4 [1, 2]
000000 00 00 80 3f 00 00 80 3f
       1.0 1.0

dof2.mean f4 [1, 2]
000000 00 00 00 00 00 00 00 00
       0.0 0.0

fc.layers.layer_0.weight f4 [24, 4]
000000 d7 cf d1 be 4c a1 9c 3f f3 40 6a be b3 7e c8 bf
       -0.40978882 1.2236724 -0.22876339 -1.5663666
000010 b5 51 f1 be ab a9 23 c0 a2 61 62 3e 53 6e 3e c0
       -0.4713265 -2.5572307 0.22107556 -2.9754837
000020 98 17 8e 3f 9e 06 d5 bf 37 14 8a be ce 77 e2 bf
       1.110095 -1.6642644 -0.26968548 -1.7692811
000030 70 8c c6 bd f7 e1 ad 3f c6 e1 cb be 75 00 5f 40
       -0.09694755 1.3584584 -0.3982069 3.484403
000040 13 97 4e bf fa 2e d8 3f d7 93 69 3e a2 de ca be
       -0.8069927 1.6889336 0.22810303 -0.3962298
000050 92 77 29 3f 9d 98 2f 3f a5 dd 01 3c 8b 97 31 3f
       0.66198075 0.68592244 0.007926379 0.6937186
000060 b2 25 4f 3f b6 e9 e7 bf 09 c0 3b 3d 51 18 76 c0
       0.80916893 -1.8118198 0.045837436 -3.8452342
000070 d8 10 a2 be 5c f3 81 3f ca 9c 87 3b 0c 43 c4 be
       -0.31653476 1.0152392 0.0041385638 -0.38332403
000080 bb 01 b3 3f 2a c8 64 bf 14 34 89 be 1b 6c e2 bf
       1.3984903 -0.89367926 -0.26797545 -1.7689241
000090 39 18 0e 3f c3 ba 0b 40 02 cc 98 3d 17 3c 9f 40
       0.5550571 2.183274 0.074607864 4.976085
0000a0 a3 78 8f 3d d0 a4 a9 bf 78 4b 77 3e f0 fb c2 bf
       0.070054315 -1.3253422 0.24149883 -1.5233135
0000b0 1b 57 cf 3f 16 0f 0d c0 b2 7a 08 be 52 1f 5f bf
       1.6198457 -2.2040458 -0.13328055 -0.87157166
0000c0 73 e6 45 bf d2 c0 bc 3f 93 2e 4b 3e 32 1f af 3f
       -0.7730476 1.4746344 0.19841985 1.3681395
0000d0 98 b4 47 bf 2e 97 f5 3f e3 f3 94 3d 39 ca 4d 3f
       -0.7800994 1.9186761 0.0727308 0.8038669
0000e0 b6 d9 2c 3f 48 0e 01 c0 af 9f be 3d 3a 83 1c c0
       0.675197 -2.0164967 0.09307801 -2.4455094
0000f0 4a 06 6a bd 1b 9e a7 3f c8 36 a6 bd cf 33 bd be
       -0.057134904 1.3095125 -0.081159174 -0.3695359
000100 34 c5 e6 3e 73 42 bf 3f 27 f7 0d be 79 2d 94 bf
       0.4507233 1.4942154 -0.13863812 -1.1576377
000110 28 77 f0 be 15 88 50 3f dc 20 cc bb c8 90 51 3d
       -0.4696591 0.81457645 -0.006229503 0.051163465
000120 cd 9a 6b 3f 85 66 d0 be 5a f3 0c 3e c4 08 33 3e
       0.9203308 -0.40703216 0.13764706 0.17483813
000130 a3 59 9d 3f 2f 98 b2 be aa f2 f1 3d d8 d1 b0 be
       1.229298 -0.34881732 0.118138626 -0.34535098
000140 fa 5b 42 be c6 63 a3 3f e4 f3 05 bb ce 42 49 c0
       -0.18980399 1.2764823 -0.002043956 -3.1447024
000150 96 f5 76 bf 6b 27 1f 3f a4 5b 81 3e 0e 5f 31 3f
       -0.96468484 0.6216952 0.2526523 0.69285667
000160 af d1 6d 3f b1 20 b6 bf c5 92 77 be bc cd e1 bf
       0.92898077 -1.4228727 -0.24177082 -1.764091
000170 ef 94 79 bf c3 8a 87 3f 20 5b 4f 3d 79 ab 94 3f
       -0.9749288 1.0589222 0.050624013 1.1614829

fc.layers.layer_0.bias f4 [24]
000000 b5 25 9e 3e df 78 4e bf 9b 8b 82 bd b4 0d 42 3f
       0.30888143 -0.80653185 -0.06374284 0.7580216
000010 02 b2 d0 3e ad 10 28 be e3 9c 18 bf f9 b8 cb 3d
       0.4076081 -0.16412611 -0.5961439 0.0994739
000020 d9 27 4e 3d 25 ed 8c be 0c 63 d1 bc d4 b0 3f 3f
       0.05033097 -0.27524677 -0.025559925 0.74879193
000030 6c 58 6a bf f9 24 58 be fe 15 a2 be d2 84 02 3f
       -0.9154117 -0.21107854 -0.31657404 0.5098392
000040 ec f0 a3 3e a6 ac a0 bb 06 97 0a bf 46 c4 7a bd
       0.32019746 -0.004903394 -0.54136693 -0.061222337
000050 b0 d0 e0 3c d8 c3 3d be dc a5 d7 3d 0b 73 6c 3e
       0.02744326 -0.1853174 0.10529682 0.2309076

fc.layers.layer_1.weight f4 [24, 24]
000000 58 19 8d bd f1 8c 4b 3e 91 c9 d0 3d 24 63 07 3e
       -0.068895996 0.19877984 0.10194696 0.13221413
000010 f4 95 00 be ad 99 7a be 0f 32 86 3d 74 c4 b2 3e
       -0.12557203 -0.24472685 0.06552517 0.34915507
000020 ff fe 41 be ad 75 9c be b8 86 84 3d d0 fa 32 3e
       -0.1894493 -0.3055853 0.06471008 0.1747849
000030 0c bf a4 bd 75 26 34 be b9 c4 b8 3e 18 16 8f be
       -0.08044252 -0.17592795 0.36087587 -0.27946544
000040 ca 94 82 3d df 05 e3 3e be 40 19 be d8 4d e9 3c
       0.063760355 0.44340417 -0.14966103 0.028479502
000050 0e 33 36 3f a3 79 d8 3c 2d 1f 35 be c1 95 69 be
       0.71171653 0.026425188 -0.17687674 -0.22811033
000060 fb 1c 14 be 45 d8 4b 3d b0 6b d0 3c 83 a2 a6 3d
       -0.1446418 0.049766798 0.025441974 0.081364654
000070 e0 f4 65 bd 6c 40 46 be 90 50 d7 3d c3 ab 60 be
       -0.056141734 -0.19360512 0.10513413 -0.21940522
000080 31 75 9d bd 4d 20 89 be a0 5c fe 3b 90 a6 52 be
       -0.07688368 -0.26782456 0.0077625066 -0.20571351
000090 40 fc b8 bd 59 37 26 bd b8 f8 11 bd 49 4d 17 3e
       -0.09032488 -0.040580127 -0.035637587 0.14775576
0000a0 65 58 2a 3e 5c ab b4 bc 18 e4 17 3e 78 13 31 be
       0.16635282 -0.022054367 0.14833105 -0.17292583
0000b0 40 73 98 bd fa 45 9d 3d 74 d2 d2 bd 2c 57 e0 bd
       -0.07443857 0.076793626 -0.10294047 -0.10954127
0000c0 91 95 c9 bd aa 20 17 3e a5 6d 44 3d 67 dc 92 bd
       -0.09842981 0.14758554 0.047956128 -0.07170945
0000d0 c5 81 39 be 2a cb 26 be 33 b8 1f be 66 4f 4e bf
       -0.1811591 -0.16288438 -0.1559761 -0.805899
0000e0 3b 9a c5 bd 5e a9 b4 3e f9 e0 e8 3d 9a 87 af 3d
       -0.09648558 0.35285467 0.11371035 0.08570786
0000f0 7b 65 14 bd 3a 8a 0e bd 98 fa 6a bc 0b 3c 38 3e
       -0.03622959 -0.034799792 -0.014341973 0.17991655
000100 f4 8c 78 3d 68 10 3a bd 27 41 38 bd 58 c7 27 be
       0.0606813 -0.045425802 -0.04498401 -0.16384637
000110 77 ac e3 be 5a 84 a2 3d 6a d8 f6 bd 69 73 d7 bb
       -0.44467518 0.079354 -0.120529965 -0.0065750373
000120 c2 97 15 3e 09 05 af bd 51 71 e5 bd 56 c1 a7 3d
       0.14608672 -0.08545882 -0.11203254 0.08191173
000130 de aa 34 bd 52 be e3 3d 37 f3 fe bd ff ee 8e 3d
       -0.044108264 0.11120285 -0.12448733 0.06979179
000140 3a 88 42 3e 24 e3 44 3e b0 32 d7 3c 7f 15 87 be
       0.18997279 0.19227272 0.026269287 -0.26383588
000150 e7 9e f5 3d 97 ae 11 3e 7c cb c3 bd 32 47 6d 3e
       0.11993199 0.14226757 -0.09560296 0.2317169
000160 86 e2 5f bd 7d 53 5a 3e 23 80 d2 3c 0b 0d 1a 3d
       -0.05465939 0.21320911 0.025695866 0.037610095
000170 0d 48 c9 3f 9a b0 13 be ef b4 90 bd a8 60 92 3c
       1.5725113 -0.14422837 -0.0706576 0.017868355
000180 5c 66 1a be d3 92 40 3d bf 32 4c bd 80 e1 6d be
       -0.1507811 0.047015022 -0.049853083 -0.23230553
000190 18 10 ee 3c 4e 1d d5 3c 0d 72 58 3e d9 43 ce 3e
       0.029060408 0.02601495 0.21137257 0.4028614
0001a0 b5 36 04 3e 83 59 a6 be b1 99 15 be 83 9b a3 3d
       0.12911494 -0.32490167 -0.1460941 0.07988646
0001b0 0c 8d 9e bd cc 11 52 3d eb d4 87 3e 93 05 a8 3d
       -0.07741746 0.051286504 0.2652963 0.08204188
0001c0 f8 d3 1b 3e 85 55 85 3e aa d7 15 be d6 5d 9a 3d
       0.15217578 0.2604181 -0.1463305 0.07537429
0001d0 7c c3 da 3e c1 bb 30 bd 9a d4 ab 3d 01 8a 92 3e
       0.42727268 -0.043147806 0.0839016 0.28620914
0001e0 96 f5 f8 3d c6 6a 4f be c4 33 82 3d 7a 5c ec 3d
       0.12156217 -0.20255575 0.0635753 0.11541076
0001f0 9a aa 7f 3d 06 02 ea 3d 1b bb 2a 3e c0 e9 94 3e
       0.062418558 0.11426167 0.16672938 0.29084587
000200 84 a5 02 be e8 5e 17 bd c0 69 69 3d 92 49 ae 3d
       -0.12758452 -0.036955744 0.056985617 0.08510126
000210 17 61 f3 b9 e7 78 49 be 8d d7 16 be a5 35 ea 3d
       -0.0004642091 -0.19675027 -0.14730664 0.11436013
000220 e5 67 b0 bd c8 0b 69 3e b2 49 78 3d 81 3a 56 3e
       -0.08613566 0.227584 0.060617156 0.20920755
000230 b5 0c 65 be 1b e0 ed 3d c0 b5 4b be 00 07 6b be
       -0.22368129 0.1161501 -0.19893551 -0.22951889
000240 87 e7 05 bd 60 c8 b1 3d 49 b5 83 bd 09 5e 33 3e
       -0.032691505 0.086807966 -0.06431062 0.1751634
000250 5f 8e 01 3e fb f2 96 3b 91 19 15 3e 35 e7 70 be
       0.12651967 0.0046066022 0.14560534 -0.23525698
000260 a5 5d 21 be f4 53 40 be 80 eb f0 bd ef d2 10 3d
       -0.15758379 -0.18782026 -0.11763668 0.035357412
000270 3e 6a 90 3d 02 59 27 3e 3d 8d db 3c 6a 6a 2a 3d
       0.07051514 0.16342548 0.026800746 0.04160539
000280 0e 9b bf 3d 9f c9 53 3d d6 69 e8 3d 1c 37 21 3d
       0.09355746 0.051705953 0.113483116 0.039359197
000290 7a 8f 23 3f 91 9d 3e be 2a b7 42 bd 22 3d 22 be
       0.638908 -0.18614794 -0.04753796 -0.15843633
0002a0 7f ff 2f 3e a4 fb 06 be 1f a8 9d bd 2e 0f 36 be
       0.17187308 -0.13181931 -0.07698082 -0.17779228
0002b0 79 2c 37 3d 4d bc 0f bd 41 a1 9e bc d5 8c b7 3e
       0.044720147 -0.035091687 -0.019364001 0.35849634
0002c0 9c fa 80 bd 9a c2 0a be f0 c6 99 bd 02 7c 09 3d
       -0.062978 -0.13550797 -0.075086474 0.03356553
0002d0 6c 0c 13 be 97 2c 22 be af f9 0e 3e ee d3 1d be
       -0.14360207 -0.15837322 0.13962434 -0.15412876
0002e0 62 9e 14 be 1c b9 92 3e fe f0 54 3e 42 83 62 3c
       -0.14513543 0.28656852 0.20795056 0.01382524
0002f0 21 b0 17 bf 19 a5 de 3d d8 6f 17 bd 61 32 40 be
       -0.59253126 0.10871334 -0.036971897 -0.18769218
000300 20 ba 81 bd d6 3f c2 3d 80 1f c2 3d ea 7b 91 bd
       -0.06334329 0.09484832 0.094786644 -0.07103713
000310 af 7c 15 be b9 97 18 3f fb 9a 9e be 0c 22 af 3e
       -0.14598344 0.5960651 -0.30977616 0.34205663
000320 52 df 4a be 8a 40 f1 bd 09 c3 0d be 45 63 4b be
       -0.19811752 -0.11779888 -0.13843931 -0.19862087
000330 2e 04 ee 3d 28 04 bb bd 57 96 26 3e 4b 27 47 3d
       0.11621891 -0.09131652 0.16268288 0.048621457
000340 f3 34 f2 bd 46 da 8f bd 5b 48 9e 3c 14 41 22 be
       -0.118265055 -0.07024054 0.019321611 -0.15845138
000350 49 51 10 3f df 46 0e bc 5e 7e 61 3d e9 1f 23 be
       0.5637403 -0.008683889 0.055052154 -0.15930142
000360 f2 59 7e bc e5 01 d5 3d 91 6c 41 3d cf 78 c4 3d
       -0.015524374 0.10400752 0.047222678 0.09593355
000370 1d 9a 4a bd 2c fc e4 3d ad e0 a9 be 46 ac b1 be
       -0.04946338 0.111809105 -0.33179227 -0.34701747
000380 47 64 50 3d 88 67 f3 3d 41 be 74 3d 86 5f 52 3e
       0.050876882 0.118849814 0.059751753 0.20544252
000390 9e 50 a2 3c b0 f2 25 be f4 b4 20 3e 7e 09 06 3e
       0.019813832 -0.16205859 0.15694028 0.13089558
0003a0 29 bc a5 bd b6 b8 6d be d4 6e c5 3d 57 82 15 3e
       -0.08092529 -0.23214993 0.096402794 0.14600502
0003b0 88 9a 39 3f 08 ef c3 3d b1 9d ba 3b d5 a2 2f 3c
       0.7250142 0.09567076 0.005695068 0.0107199745
0003c0 81 2a 1b 3d fc 3e fc bd bb 50 b0 bd 99 1e cf 3d
       0.03788233 -0.12316701 -0.08609148 0.10113258
0003d0 1b 2c 3d 3d 57 68 85 be 54 4f b8 3d d7 62 05 be
       0.04618464 -0.26056167 0.08999506 -0.13025986
0003e0 29 52 41 be ae 93 ff bd d3 41 20 be f4 0c 28 3e
       -0.18878998 -0.124793395 -0.1565011 0.16411191
0003f0 fd e9 d4 3d 1f ce 39 3e a1 d0 d4 3c 9b 42 0e 3e
       0.10396192 0.18145035 0.025978388 0.13892595

fc.layers.layer_1.bias f4 [24]
000000 a8 48 9c ba 79 db e0 3d bd 14 48 be 01 b5 ee 3d
       -0.0011923509 0.10979361 -0.19539161 0.116556175
000010 5c 37 76 bc d2 f2 f9 3d 9d d9 42 3d 19 95 1c be
       -0.015027847 0.122045174 0.047570813 -0.15291251
000020 5f 7b 00 3e 7b 9f 8e 3c 28 77 c4 bd 23 ca b0 3d
       0.12547062 0.01741003 -0.0959304 0.086323045
000030 e5 78 18 3e c2 59 28 be 9b b0 b1 3c 20 b7 35 3d
       0.14889868 -0.1644049 0.021690657 0.044364095
000040 df 2e 34 be 72 36 b2 3d 30 fb 11 3e 4c e5 02 3e
       -0.17596005 0.08701791 0.14255977 0.12782782
000050 1d e3 4d be d8 ae 13 3d 42 8d 32 3e c1 6c 98 3d
       -0.20106168 0.036055416 0.17436698 0.07442618

fc.layers.layer_2.weight f4 [24, 24]
000000 d5 25 a5 bd 87 5d 71 be 00 05 57 3e a4 c9 ec 3d
       -0.080638565 -0.23570834 0.20998001 0.115618974
000010 79 2d aa be c1 84 58 3d c5 8b 93 3c 93 ae 23 bd
       -0.33237818 0.05286098 0.018010983 -0.03996141
000020 11 ba 9f bd 06 d4 ac 3d d7 54 30 3e d4 02 18 3d
       -0.07799161 0.08438878 0.17219864 0.037112072
000030 5f b4 09 be d0 cf 31 be 05 74 db 3d 45 44 4b bd
       -0.13447712 -0.1736443 0.10715488 -0.049625654
000040 55 8b 51 3e 26 a1 0d be b9 9d 96 3e 6c 21 c9 3f
       0.20463307 -0.13831005 0.29417208 1.5713325
000050 ed 1c 89 3d 4d 0f 60 be e0 e7 03 3c c4 2d 31 3d
       0.0669497 -0.21880837 0.008050889 0.043256536
000060 31 e7 3d be 87 30 80 3e d9 5c f5 be fd 86 2f be
       -0.18545224 0.25037023 -0.479224 -0.17141338
000070 06 3c 14 3e 87 ca 1b be 5d 6a 70 3d ff b6 96 3d
       0.14476022 -0.15213977 0.058695186 0.073591225
000080 6c 26 30 be eb 08 a2 bc 81 c9 69 bd 14 25 20 be
       -0.17202157 -0.019779643 -0.057076935 -0.15639144
000090 d4 b1 cd 3d e6 4f eb bc 25 87 ce 3c f3 88 ea 3e
       0.10043684 -0.028724622 0.025210926 0.4580761
0000a0 80 b1 27 be 5b e1 6d be b8 e9 de bc 69 1c 17 bf
       -0.16376305 -0.23230498 -0.027211055 -0.59027725
0000b0 a6 a6 9f be e5 9a fa 3d b5 1b 19 3e b4 7d a5 3e
       -0.3118183 0.12236575 0.14951976 0.32322466
0000c0 f3 8e 58 3d bc 5d 01 be 92 4c 6d 3e ae 73 81 3e
       0.052870702 -0.12633413 0.2317374 0.2528357
0000d0 4e 3f 3e 3e 9c c3 03 3e 93 7b 20 be a7 03 25 3e
       0.18578836 0.12867588 -0.1567214 0.16114675
0000e0 75 a7 29 be 0b da 39 be 24 a3 00 be bf 96 f2 bd
       -0.16567786 -0.18149583 -0.12562233 -0.11845159
0000f0 f3 8f 5c be 25 73 c8 bc de 92 70 3e 89 4e b1 bc
       -0.21539287 -0.024468968 0.23493525 -0.021643894
000100 e1 63 37 bc b3 b3 f3 3d d6 09 6d 3d aa 73 05 3f
       -0.011193247 0.11899509 0.05787071 0.52129614
000110 d5 81 4f 3e ae ca 1b bd 15 63 c7 bc e3 45 93 3d
       0.2026437 -0.038035087 -0.024339238 0.07191064
000120 7a d3 83 bc c3 37 60 3e 68 bb eb 3e 23 96 83 be
       -0.01609205 0.21896271 0.46041417 -0.25700483
000130 11 b0 65 be bb 35 05 be f1 a0 0e be 07 48 bc 3d
       -0.22430445 -0.13008778 -0.13928582 0.091934256
000140 1d a8 94 be 4c 78 b6 3d 6c 8e 53 be 8f 66 4e 3e
       -0.2903451 0.089096636 -0.20659798 0.2015631
000150 60 df d0 be aa 3b 80 3e ef 22 11 bc 80 d4 88 3d
       -0.40795422 0.2504552 -0.0088584265 0.06681156
000160 82 0c ad bc 0e 0f 14 3e 33 85 9f bd 40 3f 1d 3f
       -0.021124128 0.14458868 -0.077890776 0.61424637
000170 c9 45 ee 3e 9a fc 24 bf 7e 75 ec 3d 04 92 b7 bd
       0.46537617 -0.6444794 0.11545847 -0.08963397
000180 57 80 9b bd 5b 3b b4 3d c7 0f fd 3d 3c fe 76 3d
       -0.07592838 0.08800384 0.12356525 0.06030105
000190 16 00 6e be e1 f9 c4 bd 88 57 1c 3e d9 cf 6a be
       -0.2324222 -0.09617973 0.15267766 -0.2293085
0001a0 93 f1 48 3e 88 f6 3d 3e 31 20 63 3d 82 d1 a0 be
       0.19623403 0.18551075 0.055450622 -0.31409842
0001b0 ef 60 b4 3d 52 0d e4 3c 98 ec 0f 3d 22 52 1b be
       0.08807551 0.027838383 0.035137743 -0.1516805
0001c0 35 6b 96 be b8 f8 01 3e ee b3 1b bb 3a 9e 95 be
       -0.29378667 0.12692535 -0.002375837 -0.2922228
0001d0 5b 53 af bc 7c a1 da 3c c3 f1 e2 3d 36 f9 66 3e
       -0.021402052 0.02668833 0.11081269 0.22556004
0001e0 b3 aa 19 3d 55 dd 36 bd 55 52 13 3d 7a 3e b8 bc
       0.037516307 -0.044644672 0.03596719 -0.022490729
0001f0 a8 b0 39 bf 63 f9 4a 3c a6 4d c7 3d 7e 95 ce be
       -0.7253518 0.01238856 0.09731607 -0.40348428
000200 56 15 02 3d 41 81 60 3e c7 20 69 3e 7d f2 2a bf
       0.03175863 0.21924306 0.2276641 -0.6677626
000210 ff 06 a7 3e 4d 90 1b be 50 34 0f 3f d2 4a 74 be
       0.32622525 -0.15191765 0.559392 -0.23856667
000220 28 01 3a bf 15 a2 d3 be 8c 10 3e be 36 32 ec 3c
       -0.72658014 -0.41334596 -0.18561 0.028832536
000230 91 99 bc bd e4 a8 b9 3e 4c aa c0 bc 32 b9 4f 3e
       -0.09208978 0.36261666 -0.023518704 0.2028549
000240 d7 21 48 3e f1 c8 09 3e 7c 39 9e 3e ee 4b 94 bd
       0.19544159 0.1345556 0.30903232 -0.07241045
000250 a9 29 1c bd 10 8c 36 be 19 5a 5c 3d 6d 55 5f be
       -0.038125668 -0.17826867 0.05379686 -0.21809931
000260 ac f5 33 3d de 3c 17 be 06 aa 1b 3e 18 c3 36 3d
       0.043935463 -0.14769313 0.15201578 0.04461965
000270 99 63 34 3e 24 3d 20 bd 72 da 28 be 99 af 81 bd
       0.17616118 -0.03912081 -0.1648958 -0.06332321
000280 8a 0e 15 be e1 fc ff bd a3 5a 50 be 48 19 3e 3e
       -0.14556327 -0.12499405 -0.20347075 0.18564332
000290 fd 5c 6f ba 81 24 b0 bd 35 f5 8d 3d c7 c9 2a 3e
       -0.0009130983 -0.086007126 0.06931535 0.16678534
0002a0 dd aa 8c bd 29 d3 f7 bd de 4f ce 3e 27 00 04 bd
       -0.06868527 -0.121008225 0.4029531 -0.032226708
0002b0 af 2e 14 be bc 71 3d be 7e 58 87 3d 7c e3 cc bd
       -0.14470933 -0.18500417 0.066086754 -0.10004327
0002c0 12 35 09 3e bc bb 12 be a3 ec 4b be fa 44 67 be
       0.13399151 -0.14329427 -0.19914488 -0.22584906
0002d0 7c 7f 51 3d be b6 d5 3d 14 b8 9b bc 34 8e 19 3e
       0.05114697 0.10435246 -0.019008674 0.14995652
0002e0 b4 36 bc bd 0f 11 a0 3d 68 a7 10 3d 98 a5 09 3f
       -0.09190121 0.07815754 0.0353159 0.537683
0002f0 56 03 1f be 6b 52 dd bd 1c 8e f0 bc ef 7a 71 bd
       -0.15528616 -0.108067356 -0.029364638 -0.05895513
000300 f7 54 5e 3d eb 5a 7c ba 0b 93 15 3d 88 df b0 3d
       0.054280248 -0.0009626585 0.036517184 0.08636385
000310 39 55 91 3e 39 94 11 3d 27 b0 6f 3d c7 ce 87 bd
       0.28385332 0.035541747 0.0585176 -0.066312365
000320 9c df 43 be 83 48 2b be ff 07 18 3e 7a 31 24 be
       -0.19128269 -0.1672688 0.148468 -0.16034499
000330 36 ce 9a 3d 91 fa cf bc 43 3b f0 bd bc 14 e2 3e
       0.07558863 -0.025388034 -0.11730053 0.44156444
000340 70 31 c0 bd be 11 e0 bd a9 51 f7 bd 9f de f3 3e
       -0.093844295 -0.10940884 -0.12076122 0.47630784
000350 a8 ee b1 3d be f4 de bd 97 60 dd bc a3 1f e1 bb
       0.08688098 -0.108865246 -0.027023597 -0.0068702265
000360 b8 58 2d bc 84 79 63 3e 14 e6 48 be 19 63 8a 3d
       -0.010580234 0.22214323 -0.19619018 0.06757183
000370 cb 77 c0 bd 41 24 75 3e 04 86 cb 3d ed bd 05 3e
       -0.09397849 0.23939611 0.09937671 0.13060732
000380 fe 32 19 bd 40 6f 7f be 67 2d 0b be e0 d4 b4 3d
       -0.037402146 -0.24944782 -0.13591538 0.08829665
000390 2d 29 68 be a9 5a 0f 3e b9 b2 ac 3d c8 4a eb bd
       -0.22671957 0.13999428 0.08432526 -0.11488873
0003a0 5e d0 af 3d 42 2d aa 3d 7a 07 0e 3e 22 3d 85 bf
       0.08584665 0.083094135 0.1387004 -1.0409281
0003b0 79 36 37 3e ca 28 25 be b8 4d e1 3d 81 0c 10 3e
       0.17891873 -0.16128841 0.11001152 0.1406727
0003c0 17 ea 82 3f 95 3e ef bd 17 43 a1 bf 33 6c 5b 3e
       1.0227689 -0.116818585 -1.2598599 0.21427993
0003d0 c3 e7 9d 3e 6e 41 66 3e 68 77 44 bd 5d 6d cd 3d
       0.30840883 0.22485897 -0.047965437 0.10030625
0003e0 b6 31 cb 3d fe cf 8e bd 64 f1 5f 3c a9 fd 08 3e
       0.09921591 -0.06973265 0.013668392 0.13378014
0003f0 3f 3c 62 3f dc 2a 45 be 52 14 09 3e 08 33 10 bf
       0.8837318 -0.19254631 0.13386658 -0.5632787

fc.layers.layer_2.bias f4 [24]
000000 85 11 8a bd 57 85 10 3d 8a f0 bc 3d 03 79 ef 3c
       -0.06741623 0.035283413 0.09225567 0.029232508
000010 76 df 27 3c 8d ae 8e bd 6f 48 00 3e 80 5e f2 3d
       0.010246148 -0.06966887 0.12527631 0.11834431
000020 a4 12 9d 3c 01 cd e9 3d 03 09 98 bd 7d 58 57 3d
       0.019173928 0.114160545 -0.07423594 0.052574623
000030 55 d7 8a 3c a7 6d f9 bd 80 73 ef 3c e2 96 c9 3d
       0.016948381 -0.12179118 0.02922988 0.09843232
000040 ef 0e b3 bc c4 28 79 bd 3c 95 1d be 66 1c 27 3d
       -0.021857707 -0.060829893 -0.1538896 0.040798567
000050 c4 9f 0d bd 15 d1 ab bd 64 12 29 be ee 7a 08 3d
       -0.034576192 -0.083894886 -0.16510922 0.03332036

fc.layers.layer_3.weight f4 [24, 24]
000000 4b 77 48 bc cb 43 07 3e 4b 0e 45 3b 97 ec a7 bc
       -0.012235473 0.13209455 0.0030068334 -0.020498557
000010 76 6b 3c 3d 2c fc 4b be 59 f2 59 be 37 46 a0 bd
       0.04600092 -0.19920415 -0.21283855 -0.078258924
000020 9e ff 2e be d0 33 3e 3e 63 85 0a be 3d 44 7f bd
       -0.17089698 0.18574452 -0.13527445 -0.062320936
000030 75 69 a4 bd a3 26 06 bc 65 60 70 3e 6b 15 a7 bc
       -0.08027927 -0.008187923 0.23474272 -0.020395955
000040 ea c1 bc 3d e6 a6 0a be 05 39 23 bc ad 7e a5 3c
       0.09216674 -0.13540229 -0.009962325 0.020202005
000050 ab 2a 5c bd a3 2f 5b 3e 70 20 6e 3d 79 b4 01 bd
       -0.05375163 0.2140489 0.058136404 -0.031666253
000060 08 b2 30 bd 85 31 63 be 90 b8 0f 3e eb d2 3c 3e
       -0.043138534 -0.22186859 0.14035249 0.18439834
000070 e8 4a c7 3d b9 2a 4e bb 04 d8 6e 3c e7 1b 79 bd
       0.09731084 -0.003145857 0.014577869 -0.060817625
000080 2e 59 c3 bd 40 7f 50 3d 86 c3 4c bd 89 05 8d bb
       -0.09538494 0.050902605 -0.049991153 -0.0043036384
000090 05 e0 9f bd 56 0a 19 be c5 c4 f0 3d f8 b0 60 3c
       -0.078064 -0.14945349 0.11756281 0.013714068
0000a0 b9 64 5a be ad 5f c9 3c 6e 81 3f be e5 82 15 be
       -0.21327485 0.024581755 -0.18701717 -0.14600714
0000b0 32 35 74 be ad a2 c4 3d 49 d8 68 be 46 0e ed 3d
       -0.23848417 0.096013404 -0.22738756 0.11574988
0000c0 4e 93 2e 3d 66 19 4c bd 06 23 e3 3d d3 f5 c8 3d
       0.04262095 -0.04982891 0.110906646 0.09812512
0000d0 25 af e6 bc 63 72 26 be eb e6 1a 3e c0 76 07 be
       -0.028159687 -0.16254573 0.1512715 -0.13228893
0000e0 88 09 de 39 e6 c8 12 bd f2 fb 29 3e 96 1a 4c 3d
       0.0004235024 -0.035836123 0.16600016 0.04983004
0000f0 1e 88 9a 3d a0 15 29 3e 3a bc 8a 3e 59 a0 95 3e
       0.075454935 0.16512156 0.2709673 0.29223898
000100 9d 4d 55 bd 66 2c 56 be 32 db 69 3d c7 e7 08 bd
       -0.05207597 -0.20915374 0.057093807 -0.033424165
000110 ca 9a 1d 3e 4c f0 c9 3d 04 e4 0b 3e 6d 73 5b bd
       0.15391079 0.09860286 0.136612 -0.053576875
000120 48 98 5e ba 90 80 e2 bd ad c5 3b be 8e a4 1d be
       -0.00084913196 -0.110596776 -0.18337126 -0.15394804
000130 95 aa b1 bd 3d 2f a0 bd e8 40 dc 3d e0 ac 05 be
       -0.08675114 -0.0782151 0.107545674 -0.13054228
000140 34 05 11 be 83 24 18 3e 1f 87 87 bd 5c dc 8e bd
       -0.14162141 0.14857678 -0.06617569 -0.06975624
000150 79 81 5a 3e ac d5 71 bd 52 b7 7f 3e 31 a1 50 3d
       0.21338452 -0.059041664 0.24972275 0.050934974
000160 c7 fd 59 be b8 66 a8 3d c7 9b 88 bd 82 17 1d bd
       -0.21288215 0.08222717 -0.06670337 -0.038352497
000170 dd c9 8a 3c 11 0d b0 3d 7f ed eb bd da c9 7d be
       0.016941959 0.08596242 -0.11519908 -0.24784032
000180 1d b4 4a 3c 01 f3 ee bc 8a d1 46 bd 0d ab 63 be
       0.012372044 -0.029168608 -0.048539676 -0.2223322
000190 84 b8 40 3e 11 c7 87 bd 0b 55 de bd 4a 6e 8b bb
       0.18820387 -0.06629766 -0.108560644 -0.004255091
0001a0 06 5e 54 3d 1f 32 d8 bc fe 2d 01 3e be 53 14 3e
       0.05184748 -0.026391087 0.12615201 0.1448507
0001b0 02 55 0b be 5f 86 48 bd 74 cc cd 3d 75 50 da bd
       -0.13606647 -0.04895627 0.10048762 -0.10659877
0001c0 a8 c7 20 3d 46 86 32 3e 1a d1 6e bd 9a c1 dc bd
       0.039252907 0.17434034 -0.058304884 -0.10779114
0001d0 5f f1 41 3e c1 2d 60 bd ba 66 43 bc 2e 96 1d 3e
       0.18939732 -0.054731134 -0.011926347 0.1538932
0001e0 c8 07 be bd d4 ee 09 3e b7 e2 4a be f6 0a d9 bd
       -0.09278828 0.13470012 -0.19813047 -0.10597794
0001f0 d9 c4 83 3d ee 26 c0 bd a2 b4 28 bc bb 62 a5 bd
       0.0643403 -0.09382425 -0.0102969725 -0.08075472
000200 19 51 fb bd 17 c9 38 be 67 a1 e6 bd 90 e6 e0 bd
       -0.122713275 -0.1804546 -0.11261254 -0.10981476
000210 51 a8 0e bd bd 70 55 bc c2 da 47 bd 6b 43 8b 3d
       -0.034828488 -0.013027367 -0.048792608 0.06799968
000220 f0 a8 8f bd ea 21 07 3d d1 02 1b bd c6 ec 92 bd
       -0.07014644 0.032991327 -0.037844483 -0.07174067
000230 40 a2 dc bc d0 fc 0d 3e c8 4a 07 bc fd c4 d3 bd
       -0.026932836 0.13865972 -0.008257575 -0.10340307
000240 c4 c3 df bd 01 7d 86 be ad 7d 8d 3c 7f dd 80 3d
       -0.10926011 -0.26267245 0.017271841 0.06292247
000250 d8 f5 7a bd fa 82 9b bb 6b c2 84 3e 93 4b a0 3e
       -0.06126961 -0.004745838 0.2592958 0.3130766
000260 f4 24 af bd f1 c1 09 3e 03 35 cf 3d 60 2a df 3c
       -0.0855197 0.13452889 0.10117533 0.027241886
000270 5e d3 72 be ce 73 dc 3d 74 48 41 3e d8 4b 36 3e
       -0.23713443 0.107642755 0.18875295 0.1780237
000280 27 62 28 be 32 6b 91 3c c1 6a 5e be cb 33 86 3d
       -0.16443692 0.01775131 -0.21720411 0.065528475
000290 4d bc e7 3d 9e 95 cd 3d ca b3 6b bc ba 9c 1d 3e
       0.113152124 0.10038303 -0.014386127 0.15391818
0002a0 56 8f 85 3d 5f 66 2d bd 11 76 19 3e c4 47 db 3d
       0.0652148 -0.042333957 0.14986445 0.107070476
0002b0 77 5e fa bd f1 4b 9a 3e 98 c1 37 be 6e 03 8e bd
       -0.12225049 0.30136064 -0.17944944 -0.06934248
0002c0 22 c1 f3 bd 92 ce 2d be 81 ae c5 bd c9 73 7c be
       -0.119020715 -0.16973332 -0.096524246 -0.24653544
0002d0 3a 57 2d bb 15 8f 14 be 48 6a 23 be 14 fb 98 bd
       -0.0026449696 -0.14507706 -0.15958512 -0.07469764
0002e0 c9 92 0c 3e fa 11 27 bd 59 c0 cd 3d f3 ff cb bd
       0.13727869 -0.04078863 0.10046453 -0.09960928
0002f0 56 dd 2b be 19 1d 46 be 0e dc 92 bd 40 e9 09 3e
       -0.16783652 -0.19347037 -0.07170878 0.13467884
000300 2e 66 84 be 81 72 10 be 89 fb 76 3d 3e 41 25 be
       -0.25859207 -0.1410618 0.060298476 -0.16138169
000310 d4 8f 59 be ed d9 aa bd 01 26 6c 3c c0 f9 39 3d
       -0.21246272 -0.08342347 0.014413358 0.045404196
000320 67 e3 56 3c 63 4a cc 3c 1d 65 57 be 0a 05 6e bd
       0.01311574 0.024937814 -0.21034665 -0.058110274
000330 88 3f 0e 3e f3 87 0d be 09 ba d2 bd c5 68 ed bd
       0.13891423 -0.13821392 -0.1028939 -0.11592249
000340 89 9d 54 be 20 0a ec bd e6 78 ac 3d 2f 7d 98 3c
       -0.2076322 -0.11525369 0.08421497 0.01861438
000350 fe c8 18 be 02 94 c5 3c 7e bd 97 3c 54 63 a0 3e
       -0.14920422 0.024118427 0.018522974 0.3132578
000360 b0 3c 8a 3e 06 a2 46 be 8c 95 26 3d fd 91 d7 3e
       0.26999426 -0.19397745 0.040669963 0.42103568
000370 ea b2 0b 3d 92 a7 b7 bd 6b 41 0e be ab 26 81 3d
       0.034106173 -0.089675084 -0.13892142 0.063062035
000380 21 e3 e0 bd 8e 2c b5 3d 1e 14 ac be cd dd f6 3d
       -0.109808214 0.08846389 -0.33609098 0.12054024
000390 6b 8f 1b 3e a6 cd 8c be 31 80 07 3e 62 5a d4 3e
       0.15191428 -0.27500647 0.13232495 0.41475207
0003a0 c0 09 6b bd 27 75 75 3e c7 13 ed 3d 8a 10 a0 be
       -0.057382345 0.23970471 0.11576038 -0.31262618
0003b0 9b a5 e6 bd 22 13 b0 3e f7 f0 8f 3e c5 2b 87 be
       -0.112620555 0.34389597 0.2811353 -0.2640058
0003c0 96 53 1e bd 47 c0 e7 3c 22 a2 b2 bd c6 d3 6b 3e
       -0.038653933 0.028289927 -0.08722331 0.23030004
0003d0 26 fe 79 bd c2 51 fd bd 2a 4d 14 bc 0e 74 11 3e
       -0.06103339 -0.1236911 -0.0090516005 0.14204428
0003e0 7f b5 f4 bd ce e6 7e 3d eb 6d 32 3e 22 79 41 3e
       -0.1194868 0.06223183 0.17424743 0.18893865
0003f0 a7 ad ad bc 05 f9 33 3e 4f 63 97 3d ab fb 47 3e
       -0.021200968 0.17575462 0.073919885 0.19529597

fc.layers.layer_3.bias f4 [24]
000000 76 86 0c 3d fa 25 f2 bd 26 30 6e 3d a6 68 36 be
       0.03430792 -0.1182365 0.058151387 -0.17813358
000010 d7 02 a5 bd 66 69 35 3d 41 1d 1c bd 3f 76 2d 3e
       -0.08057182 0.04428997 -0.038113836 0.16939639
000020 69 60 2a bd 34 95 3a 3e dc 4c 55 3e 62 dc 8e 3d
       -0.04159585 0.18220979 0.20830101 0.069756284
000030 fc 12 39 be 5f 5c 29 be f3 7d 22 bd 1b 98 2b 3e
       -0.18073648 -0.16539143 -0.039670896 0.16757242
000040 47 23 55 3d a2 de 9b 3c 09 2c 21 be a5 ec 8e 3d
       0.052035596 0.019027058 -0.15739454 0.0697873
000050 4c 27 21 3e a5 84 e9 bb 63 f4 85 3d e1 8d ed 3c
       0.15737647 -0.007126408 0.06540754 0.028998317

fc.layers.layer_4.weight f4 [2, 24]
000000 5f 07 d9 3d 0f 49 d2 3c c5 41 42 be 10 d0 3f 3e
       0.10597109 0.025669603 -0.18970402 0.18731713
000010 e9 57 40 3e 60 81 54 bd 9b c9 d8 bd f7 86 d5 3d
       0.18783535 -0.051881194 -0.10585328 0.10426133
000020 5f 57 c9 3d a6 71 bd bb cb 9f 5b be 31 09 41 bd
       0.09831118 -0.00578137 -0.21447675 -0.047127906
000030 67 d5 58 3e c9 2b 5a 3e 3c 59 0a 3e 3f 3a b7 3d
       0.21175157 0.21305765 0.13510603 0.089466564
000040 9e c4 18 3d 39 75 b3 bb b1 db 25 bd 79 21 12 3e
       0.037296884 -0.0054766205 -0.040492717 0.14270581
000050 32 40 0d be 7b 1e 29 bc f2 dd 10 3e c9 26 b0 bb
       -0.1379402 -0.0103222085 0.14147165 -0.0053757173
000060 8b 6b 90 bd e2 c4 61 bd c1 fe 40 3d bc 19 b0 bd
       -0.07051762 -0.055119403 0.047117952 -0.085986584
000070 f8 1f 0a 3e 65 ba c0 3d aa a5 02 3d b1 4d fa 3d
       0.13488758 0.09410552 0.03189627 0.1222185
000080 9f 98 d1 bc 6b 9c 1a 3e b2 86 9d 3d 01 fd 2d 3c
       -0.02558547 0.15098731 0.07691707 0.010619403
000090 40 aa 9d bd 09 98 4f 3d 8e 1a 99 bd 62 f3 36 3e
       -0.07698488 0.0506821 -0.07475768 0.1786628
0000a0 6a 61 35 bc b5 6f b8 3a d7 a5 00 bd d9 7f 0b 3d
       -0.011070589 0.0014071377 -0.031408157 0.034057472
0000b0 0f 00 20 bd 52 a9 24 3b d8 4f a4 bd bc 5f d4 3a
       -0.039062556 0.0025125337 -0.080230415 0.0016202847

fc.layers.layer_4.bias f4 [2]
000000 5f c1 ef 3d 44 cc cf bd
       0.117068045 -0.101463825
