results/training_train_results/best_model_311.pt (torch, 13691 bytes, 12 tensors)

std f4 [1, 2]
000000 00 00 80 3f 00 00 80 3f
       1.0 1.0

mean f4 [1, 2]
000000 00 00 00 00 00 00 00 00
       0.0 0.0

fc.layers.layer_0.weight f4 [24, 4]
000000 da ac e6 3e 36 03 c0 40 10 61 d9 3d e0 2a a4 bf
       0.4505375 6.000392 0.10614216 -1.2825584
000010 94 27 59 3f 23 4d 1d bf b5 10 a5 bf 04 9c 96 bf
       0.84826016 -0.61445826 -1.2895724 -1.1766362
000020 43 71 84 be 10 18 cb bf ec 8b 0a 3d fc a5 35 c0
       -0.25867662 -1.5866718 0.033824846 -2.838256
000030 66 77 56 3f 20 43 19 c0 73 3a 27 bc c9 57 56 bf
       0.8377594 -2.394722 -0.0102068065 -0.837277
000040 49 22 bd be 2d f2 42 40 25 1d 5e bd 4f 0e 9a 3f
       -0.3694022 3.0460312 -0.054227013 1.2035617
000050 41 a7 f7 3e 28 36 30 c0 12 71 1e be 0a 9c cf bf
       0.48369792 -2.7533054 -0.1547282 -1.6219494
000060 50 23 cc bf 81 c3 4e c0 3b f0 b0 bd c5 c1 a8 3e
       -1.5948277 -3.2306826 -0.0863957 0.32960334
000070 ee a6 26 3f c3 e5 01 c0 f6 3e b8 3e ab 41 fe bf
       0.65098464 -2.0296485 0.35985535 -1.986379
000080 27 f6 4d 3e 33 4e 72 c0 ed 5d 8f be b4 8d 0d c0
       0.20113431 -3.786023 -0.28001347 -2.2117739
000090 8b 11 37 be 74 b2 41 40 cb 14 3c 3e 1a ae ec 3f
       -0.17877786 3.026517 0.18367307 1.8490632
0000a0 bc 08 06 be ba 03 8e 3f 3a c0 9e 3c 2f 2f bb c0
       -0.1308927 1.1094887 0.01937877 -5.8495097
0000b0 5b 60 a2 bf ee 70 0e 3f fd 65 4c 3e 3b e6 d7 3f
       -1.2685655 0.5564107 0.1996078 1.6867136
0000c0 d9 9a f6 3d ea 4b 00 3f 8b 64 27 bd e8 1e 8b c0
       0.120412536 0.50115836 -0.04086737 -4.3475227
0000d0 a8 4a 9f bd 15 4e 12 c0 97 dc c0 3c 21 d0 08 40
       -0.077779114 -2.2860157 0.023542685 2.1377032
0000e0 15 79 d8 bd e2 01 b3 bf 3f 22 ab 3a 53 4f cf 40
       -0.105699696 -1.398495 0.0013056471 6.478433
0000f0 34 54 12 3e d0 94 4a 40 6b 12 4f 3b 88 aa 44 c0
       0.14289933 3.1653328 0.0031596671 -3.0729084
000100 d5 b6 8c 3e 2e 0f 10 c0 03 2c cb 3d cc 9a 72 bf
       0.2748324 -2.2509265 0.09920504 -0.9476745
000110 9c 3a 6e 3e ab 00 25 c0 f6 1e 43 be bc ee 51 bf
       0.23264545 -2.5781658 -0.1905478 -0.82004905
000120 96 ca 25 3f bf 02 2a bf 6b 30 e7 3c 41 87 27 40
       0.64762247 -0.6641044 0.02822133 2.6176302
000130 0c 34 fe 3e d7 58 5a 40 c5 ae 97 3d a8 e3 b7 3f
       0.49649084 3.4116724 0.074063815 1.436635
000140 d7 e9 bd bf 08 ad 0f c0 83 e6 82 3d c0 b2 b2 3e
       -1.4836987 -2.244936 0.06391623 0.34902
000150 54 bb e7 be 2a b3 73 c0 e3 3d 14 3e 84 ba 41 c0
       -0.45260108 -3.8078103 0.14476733 -3.027009
000160 95 34 08 bd 97 0e 3e 40 0d 48 42 be f4 e4 23 40
       -0.03325327 2.9696405 -0.18972798 2.5608492
000170 4d cc 4f 3e 9c 90 ae be 36 2f 94 bf 31 e0 dd 3e
       0.20292778 -0.34094703 -1.1576908 0.43335107

fc.layers.layer_0.bias f4 [24]
000000 1e 7b 52 bf 07 bc 51 bf ca f1 15 bf 55 31 dc 3e
       -0.8221911 -0.8192753 -0.58572066 0.43006387
000010 61 f4 be 3d 96 89 2c 3f 96 a7 3d 3e f9 fb d2 bf
       0.09323955 0.6739744 0.1852096 -1.6483146
000020 ab 05 78 3f dc b8 0a bf 87 21 77 be a7 c8 d6 be
       0.9688365 -0.54188323 -0.24133883 -0.4194996
000030 47 93 dd 3e a6 86 a0 be 89 3a 88 3c 2a 43 68 3c
       0.43276426 -0.3135273 0.016629474 0.014176169
000040 06 d5 a7 be c7 7c 54 3f 59 ed c6 be 7c 8b 99 bd
       -0.3277971 0.83002895 -0.38852957 -0.07497308
000050 e5 9c d6 be 72 f2 88 bf 31 42 2d 3f c4 32 36 bf
       -0.41916576 -1.0698988 0.67679125 -0.7117121

fc.layers.layer_1.weight f4 [24, 24]
000000 b1 1f 04 3f e7 49 ea 3d 1b ef 94 3e 30 51 dc 3e
       0.5161086 0.11439877 0.29088673 0.4303069
000010 df 78 6d 3d 92 7d 77 3d d5 e0 e8 bc f7 82 17 3c
       0.0579766 0.060422488 -0.02842752 0.009247533
000020 d3 54 0d be f9 02 09 be b5 a3 b2 3a fc 16 29 be
       -0.13801889 -0.1338004 0.0013629111 -0.16512674
000030 10 7a b0 3e 66 a6 d8 3d 06 99 e7 be e9 ca 11 be
       0.34468126 0.10578613 -0.45233935 -0.1423756
000040 14 7f 24 bd 05 09 56 3d 3c d2 d2 3e 83 f6 72 3e
       -0.040160254 0.052254695 0.4117602 0.2372685
000050 0b 3e 09 3e 3c 17 11 bc 6e 92 8d 3c bf 0f d9 3d
       0.13402574 -0.008855637 0.017281737 0.105987065
000060 5f c7 ff 3e dd 23 63 3d 2a 54 82 3d 66 93 9d bf
       0.49956796 0.055454124 0.06363709 -1.2310607
000070 1c 49 49 3e 2c ca 6f be 00 9b 7e bd 40 27 e5 be
       0.19656795 -0.23416966 -0.06215954 -0.44756508
000080 4d dd 4d be e9 2d f5 3d 7d 68 e4 3e 60 94 b8 bd
       -0.20103951 0.11971647 0.44610968 -0.09012675
000090 bb 3c aa be a6 03 bf be 39 13 cf be ea 2b ac 3f
       -0.3324946 -0.3730747 -0.40444353 1.3450902
0000a0 b9 4f 03 be f5 86 3f be df 93 a4 be 46 01 07 3d
       -0.1282338 -0.18703826 -0.32144067 0.0329602
0000b0 31 7a 91 bd 9f 59 6d 3d 17 f1 04 3e 17 f2 72 3d
       -0.07103384 0.057946797 0.12982593 0.059312906
0000c0 a9 75 25 3f e3 87 1d 3e e5 f2 a9 bd ff 58 bf 3d
       0.6463266 0.15383868 -0.082982816 0.093431465
0000d0 08 5e 2b 3e f2 6e 8d be 03 80 0f 3e 45 4e 3d bd
       0.16735089 -0.27623707 0.14013676 -0.04621722
0000e0 78 8b 8d 3d b9 10 b3 3c 4a fa 95 be d1 12 fd bd
       0.06911367 0.02185856 -0.29292518 -0.123571046
0000f0 56 92 33 3f 3a 7f 5c 3e 0c 3a d9 3d bc 9f 3c bf
       0.70145166 0.21532908 0.10606775 -0.73681235
000100 87 85 97 3d fc 72 8e bd 4a 6c 0d be 73 71 38 3e
       0.07398515 -0.06955525 -0.1381084 0.18012027
000110 04 3e 20 be b2 92 40 be b3 bd 7c bb d3 8d 87 bd
       -0.15648657 -0.1880596 -0.0038565218 -0.06618848
000120 da d7 83 3e 88 b0 9c bc 1e 7e 30 bf bc 7c c9 bd
       0.2575062 -0.019127145 -0.6894244 -0.09838244
000130 b5 e1 0f bc f4 32 66 3e 94 6e a1 be 66 0c e7 3d
       -0.00878184 0.22480375 -0.31529677 0.11281662
000140 5f 29 62 3d 68 82 77 be 20 13 75 bf ec 77 67 bd
       0.055215236 -0.2417084 -0.9573231 -0.05651085
000150 fc 0a d9 3e a4 f4 d1 be 03 5e cd 3e e6 cf d0 3e
       0.42391193 -0.41006958 0.40110788 0.40783614
000160 16 6b 7b 3c e1 66 cd bc 92 3a 4a be cd 72 a1 3c
       0.0153453555 -0.02507347 -0.19748905 0.019708062
000170 38 8f bc be bf 61 6d be 03 42 d8 bd 0c 8e 31 be
       -0.36828017 -0.23181818 -0.10559466 -0.17339343
000180 4c c7 44 3e 8c 26 ae 3d 24 3d 1b 3c 53 8a 1e be
       0.1921665 0.08503446 0.009475026 -0.15482454
000190 dd 0e 7b 3e 82 f3 35 bd 54 f4 64 bd 93 c9 f1 bc
       0.24517389 -0.04442168 -0.055897072 -0.029515063
0001a0 f6 f6 70 be ee e4 87 3e 74 a5 4d 3f 46 54 f9 3c
       -0.23531708 0.26541847 0.80330586 0.030435693
0001b0 9a e4 a9 3e 76 91 1d be fb f1 06 bf 25 85 5c 3e
       0.33182222 -0.1538752 -0.5271298 0.21535166
0001c0 45 5b d0 bd 9e 6c ad bd 42 3d 80 be b7 56 54 3e
       -0.10173658 -0.08467983 -0.25046736 0.20736204
0001d0 74 84 fb bc d1 77 24 be 16 38 89 3e a9 c0 38 bd
       -0.030702807 -0.16061331 0.26800603 -0.04510561
0001e0 fd f4 63 3e 1a 2d 6c be d3 2f 3c 3d f0 0e b9 3e
       0.22261424 -0.2306408 0.045944046 0.3614421
0001f0 9a 3e 0c 3e 93 87 21 3e 71 06 3d be 50 c9 ae 3d
       0.13695756 0.15774374 -0.18459488 0.08534491
000200 0f 95 20 be 9a 92 10 3e 1c 43 7b be 6b 15 82 bd
       -0.15681861 0.14118424 -0.24537319 -0.063517414
000210 28 1b b3 3d 19 4d 20 3e 10 7c 2b 3f f6 5b 83 bf
       0.08745414 0.1565441 0.6698618 -1.0262439
000220 3e e9 26 be cd a4 5b 3e d1 ef 10 3e 80 7e 88 3e
       -0.16299912 0.21449585 0.14153983 0.26659012
000230 2a e9 28 3d 64 a3 7e be e5 8d 16 3e 2f 3a d3 3d
       0.041237988 -0.24867016 0.14702566 0.10313832
000240 b9 a4 09 3d 92 0f c9 bd 42 6f 5c be 16 6d 83 3d
       0.033604357 -0.09817423 -0.21526816 0.06417291
000250 01 0e 34 3e da be a2 be ec 9a 1e 3e 01 78 88 bd
       0.17583467 -0.31786233 0.15488786 -0.06663514
000260 81 98 80 be 0e 21 91 3e 05 ed 92 3f a3 a6 1c bd
       -0.2511635 0.2834553 1.1478583 -0.038244855
000270 59 5d 4f 3f d9 f1 66 be b5 c5 67 bf 7a ee 3a 3f
       0.8100181 -0.22553195 -0.9053605 0.73020136
000280 41 fc 42 3d 9a 43 d4 3b 56 55 a8 3d 97 47 6f bd
       0.04760385 0.0064777853 0.082194015 -0.058417883
000290 52 59 24 3e c6 f2 9c bd 24 3b 8d 3e 19 0c 5f 3e
       0.16049698 -0.07663493 0.27584183 0.21781959
0002a0 c9 cf cd bd a0 1a 51 3e 19 a4 b4 3d 87 8a 88 3d
       -0.100493975 0.20420313 0.08820362 0.06667047
0002b0 cd f5 20 be e8 9b d7 bd 12 92 f5 3c ca 2d dc 3d
       -0.15718766 -0.10527784 0.029976878 0.10750921
0002c0 f9 85 63 be b9 83 0b b9 93 cf 4a 3f 4e a4 d8 3d
       -0.22219075 -0.00013305144 0.79222983 0.10578214
0002d0 b1 8c b4 3e dd 92 93 3d 1e ef b5 be 77 1a fa be
       0.3526359 0.07205746 -0.35533994 -0.48848316
0002e0 fe ef 14 be 3b b0 71 be 05 85 27 be 6f 85 80 3d
       -0.14544675 -0.23602383 -0.16359337 0.062754504
0002f0 f4 5b 35 be 5a b2 31 bd 89 47 92 3c f7 3e 47 3e
       -0.17710859 -0.04338298 0.017856376 0.19457613
000300 a4 05 17 3f 95 0b e8 bd a9 76 26 bf 03 48 a7 be
       0.5899298 -0.11330334 -0.6502481 -0.32672128
000310 3a 30 9c 3e 65 d1 3f be 97 8d cd bd 26 63 a7 3d
       0.30505544 -0.18732221 -0.10036772 0.08173208
000320 f8 a0 84 3e 5a 8f 57 be 99 69 62 bf fc ee 03 3e
       0.2590406 -0.21050778 -0.8844238 0.12884134
000330 a9 84 31 be 5e 68 f7 be 64 6c e0 3e 16 db 28 3f
       -0.17335762 -0.48321813 0.43832695 0.659593
000340 d7 12 a8 3d 31 0b a2 3d cb c6 56 3e 05 ae fa 3c
       0.082067184 0.07912291 0.20974271 0.030600557
000350 18 e4 0e bf a3 61 fd 3d e5 1d 12 bc 3b 1e 51 3e
       -0.55816793 0.12372138 -0.00891826 0.20421688
000360 c4 62 3f bf 00 fb c2 bd ee c0 2e 3e 9b 5f 8d 3c
       -0.7476008 -0.09520531 0.17065784 0.017257502
000370 b8 61 e3 bd 3c 46 1e 3e 44 10 f9 3e 73 94 b3 3e
       -0.11102623 0.1545648 0.48645222 0.35074195
000380 d9 f9 ca 3d bd ef 9e 3d 20 86 8a bf 4a e4 4e 3e
       0.09910936 0.0776057 -1.0822182 0.20204273
000390 17 74 94 bd 29 5f b8 3e 18 48 3d 3f 79 1b 56 bf
       -0.07248705 0.360101 0.7393813 -0.8363567
0003a0 e2 0e 67 3d a1 8d 02 bd be d1 09 3e 5d 70 af be
       0.056410678 -0.03187335 0.13458917 -0.34265414
0003b0 1d fc 28 3f 48 ef 5e 3e 97 e5 b7 bc dd e3 e6 3d
       0.66009694 0.21770966 -0.022448344 0.1127393
0003c0 4a 55 7a 3d 13 82 57 be 4f 30 e1 3e 27 e0 92 3e
       0.061116494 -0.21045713 0.4398217 0.2868664
0003d0 e8 c0 44 3e 53 98 7e be 6c 3b b1 bc 99 f5 83 be
       0.19214213 -0.24862795 -0.02163478 -0.25773314
0003e0 55 42 03 be 7f 47 d7 3c 0e 2c 87 3f a6 77 3a bc
       -0.12818272 0.02627921 1.056032 -0.0113810655
0003f0 32 7b f9 3e 49 17 18 3e 0e 4e 0d bf 8e 89 01 bf
       0.48726803 0.14852633 -0.55197227 -0.50600517

fc.layers.layer_1.bias f4 [24]
000000 bc ad a2 bd c4 ad 0e 3e 12 05 34 3d 57 86 f7 3b
       -0.079432935 0.13933474 0.043950148 0.0075538564
000010 3e bb 52 be d1 0b df bd b0 67 8e bd 37 21 59 be
       -0.2057924 -0.10890926 -0.069533706 -0.21204077
000020 6f 7a a3 3c fb ec e6 bd 44 d6 d6 bd 72 d4 a6 3c
       0.019955842 -0.11275669 -0.10490087 0.020364974
000030 df f0 e7 3d 4e 9a 9b 3d 27 e6 72 be ee 1d 75 3d
       0.113252394 0.07597791 -0.23720609 0.059842996
000040 03 d1 a1 bd 2a f9 84 bd 16 3c 60 bd 91 4c 6f bd
       -0.07901194 -0.06492837 -0.054744802 -0.05842263
000050 95 57 1a 3e 6b b5 21 be e8 8f fd bd 7c ac 5e 3e
       0.15072472 -0.15791862 -0.123809636 0.21745485

fc.layers.layer_2.weight f4 [24, 24]
000000 50 94 e5 3d 47 fd 28 be 5c 15 10 bd 2c 8e bd 3d
       0.11209929 -0.16502868 -0.03517662 0.09255633
000010 17 12 ae 3e bb c4 a1 bc d7 dc b4 bd e5 19 54 be
       0.33998176 -0.019747129 -0.08831184 -0.20713003
000020 36 8f 8a be b2 ed 1a 3e da 64 9e be a8 98 71 3c
       -0.27062386 0.15129736 -0.3093632 0.014745869
000030 44 f0 91 3e 94 27 c9 bd ef 74 61 3e ee c8 74 3d
       0.2850362 -0.09822002 0.22017263 0.059761934
000040 78 5e 1f 3e d5 bf 06 be e1 e0 5c 3d 47 06 52 3e
       0.1556338 -0.13159116 0.0539254 0.20510207
000050 fe c3 3e bd 89 77 31 3e 94 0c 0f 38 d5 0e a8 bd
       -0.04657363 0.17330755 3.410557e-05 -0.08205954
000060 56 ad 19 3e 74 84 d2 bc 7b da ca bd bc 85 6e 3e
       0.15007529 -0.025697924 -0.09904953 0.23293203
000070 39 1a 09 3e 49 8e 86 3e 6c 87 d7 be 59 b3 f5 3d
       0.1338891 0.2628043 -0.42095506 0.119970985
000080 74 b8 43 bd cd 90 72 3e 18 51 bc 3c a0 75 50 3d
       -0.04778333 0.2368805 0.022987887 0.050893426
000090 e4 13 d1 bc ec f7 54 bd a6 d5 b0 3c a7 9d 87 3e
       -0.02552218 -0.05199425 0.02158625 0.26487467
0000a0 a6 f3 8a be 75 19 8d be 2e 42 7a be b6 9c f7 bd
       -0.27139014 -0.27558485 -0.24439308 -0.12090437
0000b0 d8 c0 02 3e b1 a4 e4 bd 0a 01 4b 3e 44 52 97 3e
       0.12768877 -0.11164225 0.19824615 0.2955495
0000c0 aa c0 0d be d2 ad 5c 3c 78 8f 3c 3e 79 6c e7 be
       -0.13843027 0.013469176 0.18414104 -0.45199946
0000d0 b4 31 64 3e 31 48 e1 bd 1e 92 d5 3e 11 a9 e7 3e
       0.22284585 -0.110000975 0.4171304 0.45246175
0000e0 0d 43 a0 be cd 57 9a 3d b9 39 a8 3e a6 dd c7 3e
       -0.31301156 0.07536278 0.3285654 0.39036292
0000f0 53 e1 86 be 8f a0 55 bf b1 39 b5 3d 8f 5c 3e 3d
       -0.26343784 -0.8344812 0.088488944 0.04647499
000100 f4 53 1c bd c6 cd 27 3e 33 ef 0b bf 2b d0 08 3e
       -0.038166 0.1638709 -0.54661864 0.1336066
000110 74 41 3f 3d 8b e9 e7 3e f5 e9 a0 bd aa 52 c0 3d
       0.04669328 0.45295367 -0.07857124 0.09390767
000120 1f eb 98 3e 32 f1 f3 3c bc 6c 54 be 95 4a 76 3e
       0.29866883 0.029778097 -0.20744604 0.24051888
000130 10 15 8a bd 31 50 37 3e 2d 1d 87 3e 2c 9f 90 3d
       -0.067422986 0.17901684 0.26389447 0.070616096
000140 65 4a f0 3d 6b 47 16 3e 58 73 02 3f 83 19 75 3e
       0.1173294 0.14675681 0.5095725 0.23935513
000150 80 5a f6 3d 79 4c c9 3d cd 21 61 be 63 fe a7 3e
       0.1202898 0.09829039 -0.2198555 0.3281127
000160 48 8e e6 be d3 14 96 3e 45 e1 42 bd eb 80 e9 bd
       -0.45030427 0.29312763 -0.047578115 -0.11401542
000170 a4 ce 04 3c 37 aa cc be 95 fa 01 3f 76 ec e5 3e
       0.008105908 -0.39973614 0.5077298 0.44906968
000180 73 91 48 3d 4a d0 3b 3c f4 0c 0e 3f c3 10 2e 3e
       0.048966836 0.011463234 0.55488515 0.16998582
000190 e4 96 71 be 6b af 42 bc 81 85 bc 3d 48 23 29 be
       -0.23592716 -0.011882643 0.09205151 -0.16517365
0001a0 e9 31 85 3e 1b 6d af 3d c6 f4 76 be f2 ca 19 bd
       0.2601464 0.08565732 -0.24116811 -0.03754706
0001b0 44 76 e9 be 5b 23 a5 bc 16 d0 5f be 13 9a 0a bf
       -0.45598042 -0.02015846 -0.21856722 -0.5414135
0001c0 0a 3d 25 bf bc ac bd 3d 83 df d9 3d aa 05 30 3e
       -0.64546263 0.09261462 0.106383346 0.1718966
0001d0 8e dc 47 3d 6d 33 24 3e 3c 82 d9 be 9d e0 40 be
       0.04879432 0.16035242 -0.42482173 -0.18835683
0001e0 5e 65 82 be 16 e5 8a 3e a1 8d c3 3e 2e 03 00 3d
       -0.25467962 0.27127904 0.38193992 0.031253032
0001f0 84 26 25 3f 7e 17 13 bf 70 9f 9c 3e 2a 17 ab ba
       0.64511895 -0.5745772 0.3059039 -0.0013053168
000200 ff 23 b5 3e 0e f2 62 be 1a 72 c9 be 79 0a d5 be
       0.35379025 -0.22162649 -0.39344865 -0.41609553
000210 94 41 76 be 97 a0 c8 be 0b f5 f2 3e ec ea 26 3e
       -0.24048454 -0.3918502 0.47452578 0.16300553
000220 c1 98 01 be 86 c9 10 be f3 4b c0 3e b8 8f a0 be
       -0.12655927 -0.14139375 0.37557945 -0.3135965
000230 fd 63 92 be 76 f1 ca 3c 0d a8 b9 3d 6b 6e 16 bb
       -0.2859191 0.02477334 0.09065256 -0.0022953998
000240 78 41 82 bd 0c 37 21 be 1c e3 bb be 22 c6 73 3e
       -0.063601434 -0.15743655 -0.36696708 0.2380605
000250 0a d8 85 bf 46 ea 69 bd 2e 82 4f bf 68 0d 1a bf
       -1.0456555 -0.057108186 -0.81058013 -0.60176706
000260 66 4c 3a 3e ba 66 30 3f 27 6e 97 bf 3d eb 98 3f
       0.18193206 0.6890675 -1.1830491 1.1946789
000270 c2 8a 97 3e df e6 43 3e 35 e3 17 bf e8 20 57 bf
       0.2959805 0.19131039 -0.59331065 -0.84034586
000280 7c 35 24 3f 82 2e c5 3d bb 2d 93 3f 40 68 88 bd
       0.6414411 0.09628011 1.1498331 -0.06660509
000290 34 4c f6 3e cc e3 cd 3e 5f 11 3f bf 53 80 33 3e
       0.48105013 0.40212858 -0.7463588 0.1752942
0002a0 4f 6c ad bd c4 93 d0 3d 8f 3d e7 bd ce 35 9d bb
       -0.08467924 0.10184434 -0.11291038 -0.004797674
0002b0 6a be 38 bd 92 d4 1f 3e 57 83 4f be a6 3a 72 3e
       -0.045103468 0.15608433 -0.20264946 0.23655185
0002c0 ca a3 93 3e bb 7d 6e be db e1 3d be 94 0d c7 bd
       0.288359 -0.2329015 -0.18543188 -0.09719387
0002d0 10 45 05 bf 3e 54 66 bc 10 d7 cc be 8e 75 83 bd
       -0.52058506 -0.014058171 -0.4000783 -0.06418906
0002e0 da a8 84 3e ec ea b9 3e 5c 57 a7 3e 68 1e 56 3e
       0.25910074 0.36312044 0.32683837 0.20910037
0002f0 5e b5 03 be f7 9e 0b 3d eb 91 fa be 5b c7 90 be
       -0.12862155 0.034087148 -0.48939452 -0.28277096
000300 79 b4 eb 3d 65 30 84 be 00 67 68 bb 46 3a 07 be
       0.11509032 -0.25818172 -0.0035461783 -0.13205823
000310 dc 0d 9c be a1 81 5a bd 08 5f c5 3e 7a ad ac 3c
       -0.30479324 -0.05334628 0.38549066 0.021078814
000320 51 00 fe 3e 03 a7 e3 bd ed 2c fe bc aa c9 23 3e
       0.49609616 -0.11115839 -0.031027282 0.15994897
000330 5f 43 a8 be 44 70 73 bc cd 68 60 be 62 fb 56 be
       -0.328639 -0.014858309 -0.21914978 -0.20994332
000340 72 a4 83 be 2f 13 ba be 50 f5 1d bd 57 83 82 bd
       -0.257114 -0.3634276 -0.038564026 -0.06372707
000350 82 a1 a3 bc ea 2f 66 be df 8b 93 bd d9 4a df bc
       -0.019974474 -0.22479215 -0.07204413 -0.02725737
000360 82 49 b0 bd c7 00 69 bc 52 15 e5 be 58 62 03 be
       -0.086077705 -0.014221377 -0.4474283 -0.12830484
000370 7f 0d 31 3b 5b ee 40 be 58 09 01 3f b2 b1 b2 be
       0.00270161 -0.18840925 0.5040488 -0.34901196
000380 ba 02 8f be 69 2b 1f be 7a c6 f1 be 71 52 54 bc
       -0.27931768 -0.15543903 -0.47221738 -0.012959109
000390 81 56 89 3e cb 93 26 be 7d d2 0a 3d 68 6d 56 3e
       0.2682381 -0.16267316 0.033892144 0.20940173
0003a0 d3 16 42 3e fe e5 32 be ac 0a c0 3d 4e ec c5 3e
       0.18954019 -0.17470548 0.093770355 0.3865685
0003b0 51 d3 9b 3d 69 68 0d 3f e4 23 45 be 39 6d 85 bd
       0.07608665 0.5523744 -0.19251972 -0.06514973
0003c0 46 32 b3 3d d5 26 17 bb d8 a8 a4 3e fb 75 d8 3d
       0.08749823 -0.0023063917 0.32160068 0.10569378
0003d0 6e 9f b3 3e e8 1d 9c 3e 82 06 12 3e 4b d4 f9 3d
       0.35082573 0.30491567 0.14260295 0.12198695
0003e0 70 ed ac 3d 07 c7 2b be 1a f8 1e 3e a3 22 f7 3c
       0.08443725 -0.16775142 0.1552433 0.030167883
0003f0 40 5b 4e 3b ac 80 e8 3d fb 8b 8c 3e 32 4a 83 3e
       0.0031487495 0.11352667 0.27450547 0.25642544

fc.layers.layer_2.bias f4 [24]
000000 d1 0c 8b 3c 85 fa 81 bc 6c 4c f0 bc 4c 74 1c 3c
       0.016973885 -0.015866527 -0.029333316 0.009549212
000010 97 de 98 bd 4a 87 83 bd df c9 0e 3d 1d 84 ee 3d
       -0.07464331 -0.06422289 0.034860488 0.11646292
000020 23 69 26 3c 97 38 81 bd bc cf 8a 3d 3b 16 96 3d
       0.0101569025 -0.06309622 0.067779034 0.07328459
000030 f2 f6 e6 bd f5 93 6b 3d fe 6d 21 bd 38 d2 01 3e
       -0.1127757 0.05751415 -0.039411537 0.12677848
000040 35 d2 3c be 75 ae be bd 4a ed a5 bd 7c 15 d7 bc
       -0.18439563 -0.09310619 -0.081019 -0.026255362
000050 63 3d 39 3d 01 d5 a8 bd 9e c0 09 3e 47 6a 19 3e
       0.04522456 -0.08243752 0.13452384 0.14981948

fc.layers.layer_3.weight f4 [24, 24]
000000 70 0f b6 bc 3a f2 53 3c cd 5f 0a 3c 4d 5f c6 3d
       -0.022224158 0.012936169 0.008445692 0.09686146
000010 2e 3d ae 3d 2a 4f 58 bd 6c cc c2 bb da d0 f2 bd
       0.08507763 -0.05280987 -0.005944779 -0.118562415
000020 4b dc aa 3d 3b 17 bd 3c 10 49 0c bc 78 93 1a 3e
       0.08342799 0.023082366 -0.008562341 0.15095317
000030 24 23 74 bd a8 9b fc 3d ab 42 2c bd 55 b4 83 bb
       -0.059603825 0.123343766 -0.042055767 -0.0040193
000040 80 62 f5 bd 8e 65 a1 bd 35 a0 8c 3c a8 00 34 bd
       -0.11981678 -0.07880698 0.017166236 -0.04394594
000050 2d 96 ec bb 46 2d a7 3b f5 5d 0f bd 09 2a 81 3d
       -0.007220051 0.0051018326 -0.035001714 0.06306846
000060 f3 8f 99 3e 63 e9 0f 3d c9 7d 37 3e c0 9d ea 3d
       0.29992637 0.035134684 0.17919077 0.1145587
000070 b7 cf 9c bd fd cc 20 be 7e 73 19 3e de 44 11 be
       -0.07656806 -0.15703197 0.14985463 -0.14186427
000080 79 e7 c3 bd 87 6a ee 3d 31 2c 57 3e 86 b6 8d bd
       -0.09565634 0.11641412 0.21012951 -0.06919579
000090 e8 c0 bc 3c c1 3d 9d be 57 fc c7 be 2f 77 c2 3d
       0.023041204 -0.30711177 -0.39059708 0.09495389
0000a0 33 5b 49 3d b3 35 26 3e 52 47 d9 be c8 9c 8a be
       0.04915924 0.16231422 -0.42437226 -0.2707274
0000b0 02 68 e4 3e 23 b4 fa 3c 4b 96 64 be 0a 35 06 be
       0.44610602 0.030603474 -0.22322957 -0.1310617
0000c0 3f 68 07 be f9 55 85 be 44 f9 91 bd 8d 2b ce 3d
       -0.1322336 -0.26042154 -0.07127622 0.100669004
0000d0 81 7f f1 3d 01 ac bf be dc e1 91 3e 99 a1 13 3e
       0.117918976 -0.37435916 0.2849263 0.14417113
0000e0 ae c0 2e 3f f1 1e e8 3d e8 2c b7 3d 1d 35 b1 be
       0.68262756 0.113340266 0.08944112 -0.34610835
0000f0 83 5c cf 3d 79 e4 3d be 08 8b 6e bb 8b 62 58 bc
       0.10125067 -0.18544187 -0.0036398787 -0.013207088
000100 8e 81 9a be b2 d3 48 3e 43 f7 3e 3e d6 d5 48 3d
       -0.30176967 0.19612005 0.1864901 0.049032055
000110 37 95 8a 3d 8c 3e b4 3e 95 fa aa 3e 3d 63 a4 3c
       0.06766742 0.3520397 0.33394304 0.020066852
000120 c6 ee 26 be d3 f4 66 3e 90 9e 06 be 8b ce 22 bd
       -0.16302022 0.2255433 -0.13146424 -0.039747756
000130 b2 1c 5b be 3b ec 91 3c 2d 59 d5 bc 34 b9 be bd
       -0.21397665 0.017812839 -0.026043499 -0.093126684
000140 ba e2 84 bd 36 44 dd bd 2e 17 51 3e 48 d4 85 be
       -0.06488557 -0.10804026 0.20418999 -0.2613852
000150 5c 1a a0 3e 7a 70 22 be 36 87 48 3e fb 7c 1d 3e
       0.3127011 -0.15863219 0.19582829 0.15379708
000160 b1 3b 7a 3d bc d3 51 3e 59 da 12 3e fa 79 0b 3e
       0.061092082 0.20490927 0.14341106 0.13620749
000170 c1 4e 36 bc 5e 8f 0b 3e ac 3b e4 3d 08 54 2e 3d
       -0.011127175 0.13628909 0.11144194 0.042560607
000180 9c 1e 44 bd 54 bb 0c ba cb 64 90 be cc 52 90 3d
       -0.047880754 -0.000536849 -0.282019 0.07047042
000190 3f 99 e2 3e 0f ba ef bd 55 81 ab bd f3 d6 47 3e
       0.44257542 -0.1170541 -0.083742775 0.1951559
0001a0 2c be 87 3e 63 d9 b0 be f0 b5 d7 3c 9e ab 01 3e
       0.26512277 -0.34540853 0.026331872 0.12663123
0001b0 ec 6c a9 bd 4a 30 b6 be 02 a4 2d be 69 a1 9f 3e
       -0.08272728 -0.35583717 -0.16957095 0.31177834
0001c0 6b fa 75 3e 04 52 b3 bd 22 ed ae 3e 7a 5f 89 3e
       0.24021308 -0.087558776 0.34165293 0.26830655
0001d0 b0 54 89 be ec 21 95 3d a0 3c 2c 3e 8c 86 77 3d
       -0.26822424 0.07281861 0.16820002 0.06043105
0001e0 b6 35 5c 3e 44 f7 eb 3d d8 a8 48 3e b0 f2 29 3b
       0.21504864 0.115217716 0.19595659 0.0025932007
0001f0 72 73 5b bc cf a7 12 bf ce ff f8 be e9 50 c1 3d
       -0.0133942235 -0.57287306 -0.48632663 0.094392605
000200 54 53 51 bd 9c 85 cf 3d e3 c1 3f be 74 f1 c2 be
       -0.05110486 0.10132906 -0.18726306 -0.3807484
000210 9c 84 e8 bd 26 1a e5 bc b2 ca 81 be 52 d1 d9 3d
       -0.11353418 -0.02796657 -0.25349957 0.10635628
000220 cb 31 17 be 21 55 11 3d 21 56 82 be 64 bf 06 be
       -0.14765088 0.035481576 -0.25456336 -0.13158947
000230 1a 08 2f 3e e6 2e 1f 3d 17 ce d3 be f5 e8 b8 bd
       0.17092934 0.038863085 -0.41368172 -0.09028808
000240 c5 45 aa bd d8 c0 f2 bd 88 84 9f 3e 96 23 e6 bd
       -0.08314089 -0.11853188 0.311558 -0.11237256
000250 cb 29 a1 bd 3a 93 84 3e ed c6 1d 3c 50 1e 56 3e
       -0.078692995 0.25893575 0.009629947 0.20910001
000260 b5 94 83 be ea 22 f9 3d 35 67 4b bc fe 6d 14 bd
       -0.25699392 0.121648625 -0.012414743 -0.03623771
000270 bb cd 91 be 27 ed 22 3e c2 90 e7 bb 07 cc 87 3e
       -0.28477272 0.15910779 -0.007066817 0.26522848
000280 fa d3 5c be 79 94 29 bd b6 9c 84 bd 78 9b a3 3d
       -0.21565238 -0.04140136 -0.06475203 0.07988638
000290 d4 ae cc bc 16 04 1a bc 46 29 2f 3e 24 e1 28 3e
       -0.024985708 -0.009400388 0.17105588 0.16492134
0002a0 ae 5f 06 3e a4 58 3f be e2 05 45 be 37 7b 1a 3d
       0.13122436 -0.18686157 -0.19240525 0.037715163
0002b0 6d 1d 04 3e df fd 4a be 26 d9 24 3e 9f 3e 23 3e
       0.1290185 -0.19823407 0.1609846 0.15941857
0002c0 9d dc 35 3e 52 e4 35 be 7a 5f 08 3e 0c 91 96 bd
       0.17759939 -0.17762879 0.13317671 -0.07351884
0002d0 73 f6 ab bc 3e 24 a2 3c e0 44 9b 3e fd c9 f3 ba
       -0.02099154 0.019792672 0.30325985 -0.0018599626
0002e0 73 70 51 bd a8 0b e6 bd ed 7f c3 ba b2 39 aa 3e
       -0.05113263 -0.11232692 -0.0014915444 0.33247143
0002f0 49 39 8a bd 5a aa cc bd 19 3a 86 3e 53 57 10 be
       -0.067492075 -0.099934295 0.262162 -0.14095812
000300 9b 67 4f bd 31 44 56 bd 00 99 6e bd 34 ef 2c bd
       -0.050635915 -0.052311126 -0.05825138 -0.04222031
000310 7f d7 d1 bd 2c 87 1a 3d 75 0e ab 3c c9 13 5c 3d
       -0.10246181 0.037726566 0.020880917 0.053729806
000320 6d 11 cf bd 9a ca 38 3d 41 3f 27 3d 86 50 66 bd
       -0.101107456 0.04511509 0.040831808 -0.056229137
000330 2a 41 14 3e dd 5d 96 bd 81 23 21 3d da 6f 19 bb
       0.14477983 -0.07342122 0.0393405 -0.0023412616
000340 d6 c9 fc 3b 52 e1 3f 3d 8b 93 a7 b9 1e 94 8a bc
       0.0077144904 0.04684574 -0.0003196265 -0.01691633
000350 b6 22 36 bb 25 ed c6 3d 94 00 5e 3c 6f 56 35 be
       -0.0027791685 0.097132005 0.0135499425 -0.17708753
000360 65 84 3d 3e dc ea b6 3d f0 a7 08 bd 05 b4 82 3d
       0.18507536 0.089315146 -0.033363283 0.06381992
000370 e4 d8 2f bd 9a d7 58 3d de 56 6c 3c 73 2e 0a 3e
       -0.042931452 0.05293999 0.014425008 0.13494281
000380 ec 28 f2 3d 88 71 00 3d cc 4c 69 3d 4b 71 b8 3d
       0.118242115 0.03135827 0.056958005 0.09005984
000390 d2 5c f5 3d e9 2c bf bd c8 56 f4 3d fe dc 20 39
       0.11980595 -0.09334738 0.11930615 0.00015341115
0003a0 dc e5 54 3b 08 60 01 3c c0 54 d3 3a f2 f3 02 be
       0.003248564 0.007896431 0.001612328 -0.1278837
0003b0 b9 fb 8b 3b dc 4a e3 bc a1 87 de 3b 45 ac f5 bd
       0.004271951 -0.027745657 0.0067910706 -0.119957484
0003c0 f8 f7 33 3c 74 3a de 3d 1a 13 8c bc 76 2b 17 3c
       0.010984413 0.10850993 -0.017098952 0.0092266705
0003d0 66 30 24 3d 96 33 19 3d be 09 ae 3b dd 85 7f 3d
       0.04008522 0.03740271 0.00531122 0.06238352
0003e0 66 0c 70 3c 0e a2 6f 3d a9 9c 9c 3d 71 a5 73 bc
       0.0146513935 0.058504157 0.07647068 -0.014870987
0003f0 de ae b7 3c d9 20 04 bb db 1c 41 3d 2e bd e2 3a
       0.02242225 -0.002016118 0.04714666 0.0017298812

fc.layers.layer_3.bias f4 [24]
000000 f5 9b ea bc 83 3d 0c 3d ed be 07 be 51 d9 64 3d
       -0.02863882 0.03423835 -0.13256426 0.05587131
000010 bc 78 d1 bd f8 33 be 3d 30 1b 02 be 77 91 19 be
       -0.102281064 0.09287256 -0.12705684 -0.14996897
000020 bf 7a 13 3d ce de b9 3c f0 c2 74 3c 0e ca 3a 3d
       0.03600573 0.02268925 0.014939055 0.04560285
000030 9d 6c c2 3d 60 8e 3a 3d 3f a1 5f bd 16 a1 c7 bc
       0.094933726 0.045545936 -0.054597136 -0.024368804
000040 03 fb 86 bc 5a 88 03 3e f5 dd 0b 3d cb 26 17 bd
       -0.016477114 0.12844983 0.03414722 -0.03690223
000050 ee 00 9e 3c 4e c8 30 bd d4 19 8b 3b ee e2 d4 bd
       0.019287553 -0.043159775 0.0042450223 -0.10394846

fc.layers.layer_4.weight f4 [2, 24]
000000 3b d1 9d 39 93 70 1c 3e 0d 99 84 3d d0 48 f7 bc
       0.00030101262 0.15277319 0.064745046 -0.030186087
000010 9e a5 9a bd 8d b3 0c be be 55 86 3b b4 06 79 3d
       -0.0755112 -0.13740368 0.0040995767 0.06079741
000020 fe e9 00 ba 62 f0 90 b9 f4 7e 06 ba 86 79 b9 bd
       -0.000491768 -0.0002764492 -0.0005130612 -0.09056382
000030 89 10 86 3d c5 34 bb b9 7a ab 45 bd 51 d2 5a 3b
       0.065461226 -0.00035706736 -0.048259236 0.0033389519
000040 1f cc 34 3c 07 18 1a 3d 32 d0 7a 3b bc d4 ed 39
       0.011034994 0.03762057 0.0038271067 0.00045362662
000050 aa 95 cc b9 1e 76 cb bd 3b d9 7c ba c0 42 e6 bd
       -0.0003902142 -0.099346384 -0.0009645407 -0.112432
000060 1c 4c 1d 3a 2c eb b6 bc fc 49 88 bb 90 b7 65 bc
       0.0006000416 -0.022328936 -0.0041592102 -0.0140208155
000070 ea a4 bc 3c f6 8e ba 3c e8 b9 4b 3a 88 d3 1e bd
       0.023027856 0.022773247 0.00077715376 -0.03877595
000080 05 58 cd b9 58 12 97 b9 c9 a3 95 b9 dc c0 b0 3b
       -0.00039166227 -0.00028814632 -0.00028541524 0.0053940844
000090 fd ef a8 3d ba 8e ba b9 50 a3 26 bc 14 68 bd bb
       0.08248899 -0.00035583024 -0.010170773 -0.0057802293
0000a0 47 a9 86 3a d3 fa 05 3d c7 c1 2b 3a 00 3e 0b 3a
       0.0010273837 0.032709908 0.00065520074 0.0005311668
0000b0 3d 58 00 ba bf 93 b7 3c c6 56 f5 b9 91 33 31 bc
       -0.0004895961 0.022409318 -0.00046794693 -0.010815517

fc.layers.layer_4.bias f4 [2]
000000 32 25 49 bc 25 ba 9d bc
       -0.012276934 -0.0192538
